DL_Model/Pytorch_Model/data_info.pth (torch, 10776 bytes, 8 tensors)

l1.weight f4 [8, 124]
00000000: 763f 3d3e 226f 79bf 457e ae3f e89e 1abf
00000010: 4762 753f a282 933f c921 39bf b020 0440
00000020: fc44 02bf d7d8 b13f fae2 853f d18d d73e
00000030: 54db 73bf 3fbc 0140 4e9f b2be b829 933f
00000040: ad99 fb3f 35d1 58bf 8553 33bf 3565 80bf
00000050: e7fb a8bf f144 a2bf 3cd2 e83e 12e4 b5be
00000060: 937e 92be d2cb 863f 857e a33d 5e45 033f
00000070: ca72 183e fd79 883c b782 533e 575b 5b3e
00000080: 56aa 4c3e 7b96 2d3d 79d8 77bb 3cb8 4b3d
00000090: a504 f13b 522c 693e 987d 163e bfb1 773d
000000a0: 050a 5e3e 3d41 7f3e 791e c33d 730c f33d
000000b0: 8742 7d3d 0c3a 283e 36c5 3a3d 48e0 9b3e
000000c0: 05b6 8abc 4f21 a63d 82da 3c3e 3b65 6d3e
000000d0: e69e d7bd dc82 233e f77f df3e 0590 bd3e
000000e0: 156d 6b3e 25be bd3d 6dd9 353e 483c 283e
000000f0: 28f7 903e f95a 0f3d aa29 2d3d a16c 5d3e
00000100: 2c86 e03d 71c1 833e 5717 c83d e8cd f63e
00000110: 5057 8e3d 97b8 d93e 4685 473d ddbb b43e
00000120: 031e 1f3e 897c 103e 709c 513c 2f31 743e
00000130: 08a7 c23e 47d7 993d 3ac5 ce3d 5875 b33e
00000140: ead3 cf3e 3f34 4c3e 9f9c bfbc 7367 533f
00000150: 1515 383e 6027 0f3e f7aa 313e a516 a13e
00000160: 87e3 9d3b c8aa 913e c03e 3b3e c902 f93d
00000170: c1ae 7a3e b91a 553e 52b6 a13d d928 343e
00000180: 33c3 0e3e cab3 d83e ac03 5b3e bbbb b33d
00000190: fd9d 613d b097 543e e2ba 183e 132c a33d
000001a0: 0107 e7bd b161 d83d bbd9 0a3e 2fa2 4d3e
000001b0: 86bf 5c3e 8897 6e3e 9ba1 3b3e 7666 9f3e
000001c0: a771 083e 093d 133e 90e3 463e d0e4 863e
000001d0: 02d4 083e b87a ea3d c9a9 993e 4f47 243e
000001e0: bdef 983e 1a53 193e f5bf 253e 5ca3 31bd
000001f0: e714 1f3d 88ef c73f 32f5 423e 7c5e 57be
00000200: c9fa 30bf fb4a 3c3f 7c1e 5d3f 22a3 cdbf
00000210: 82e3 cd3f 166b 7fbf 4104 733f 96f5 a8bf
00000220: 8bbf 233f 8f26 a9bf 0d12 213f 3a01 acbf
00000230: 5e71 503f 604b c33f 0064 0e3b 9924 d33f
00000240: bd92 fb3f 05b4 2a3e 95c1 babf e420 4d3e
00000250: b295 e13f 5dd2 d5be 9c4c 9c3f 445f 133f
00000260: 7f2d cf3b b04a 093e df8e c03c 27bf 89bd
00000270: 2be9 b7bc 7408 1abe eb9a b43d c780 113d
00000280: 82d9 9f3e 7169 91bc a64d 263e 78c8 903e
00000290: 6fbc 6cbd 0e89 57bc 0e53 c4bd f34a 07be
000002a0: a722 66bb 0dff 8abc 39a1 433e 9824 e4bc
000002b0: 7c7c 093e f310 fc3c b02b 8cbc 9e08 5cbd
000002c0: 2e65 193d b393 933e 120f c73e a0b0 b33e
000002d0: f6f5 25bd 4dc9 2e3e 9bb0 b93d e4d2 d6bc
000002e0: 8509 dbbd a573 373d 42d5 82bd 9c55 8dbd
000002f0: 2251 cdbd e435 ccbc 7add 63bc 6c5f 0b3f
00000300: e6db 02be 8ffb ac3e 683a 153e b702 e93e
00000310: 8a80 7bbd bd70 853c 65db 923d 2780 23bd
00000320: dfb6 513b b37e 2abc 3ff6 fb3d 632d 5e3e
00000330: 8522 b73e 20cf 6f3d bbf4 bebc 2bc4 c13e
00000340: 4c70 3dbd 8965 98bd ce5c d13e b84c d0bd
00000350: 010a 923d 0f53 aa3e b7bc 15be 93f0 2e3c
00000360: d608 ca3e d35a 20bd 0deb 6c3e c872 263e
00000370: 5ca4 c6bd b445 003f b4ca 2abd c3ed f3bb
00000380: f365 ae3d 115d 033f 8ffb a5bd 3a19 eabc
00000390: 8135 73bc b437 f2bb 1753 2cbd 13e3 d6bc
000003a0: f88e b13e d8ec 11be 2536 123d ef43 a53e
000003b0: b243 74bd 7f40 47bc 57b2 5e3d 0df2 9c3e
000003c0: e7c6 893d c437 ba3d 8192 f1bd e599 74bd
000003d0: a04c e43e 9c77 2c3e 21de 7bbd 9cf2 fa3d
000003e0: 05aa 1bbd 8ed7 0340 3bb9 8f3e 0108 44bf
000003f0: 30a8 81bf be54 bdbf 60a6 3f3f b96b 6f3d
0.1848124 -0.974352 1.3632284 -0.6039872 0.95853084 1.1524241 -0.7231718 2.064495
-0.5088651 1.3894299 1.0459893 0.42100385 -0.95256543 2.0271146 -0.34887165 1.1497107
1.9656273 -0.84694225 -0.70049316 -1.0030886 -1.3201874 -1.2677289 0.45472896 -0.35525566
-0.28612193 1.0530951 0.07983116 0.5127772 0.14887539 0.016659731 0.20655333 0.21421562
0.19986853 0.042379837 -0.0037818237 0.049736246 0.00735529 0.22770813 0.14696348 0.060472246
0.2168351 0.2492723 0.095272966 0.11867609 0.061831024 0.16428393 0.04559823 0.3044455
-0.016932497 0.08111822 0.18442729 0.23183148 -0.10528354 0.15967888 0.43652317 0.3702394
0.2299083 0.09264783 0.17758723 0.16429245 0.28313565 0.034998868 0.042276062 0.2162347
0.10963091 0.25733522 0.09770077 0.4820397 0.06950247 0.42523643 0.048711084 0.35299578
0.15538792 0.14110006 0.012793645 0.23846887 0.3801806 0.07511764 0.10096212 0.35050464
0.40591365 0.19941805 -0.023390112 0.82579726 0.17976792 0.13979864 0.17350374 0.3146259
0.004818383 0.28450608 0.18285656 0.12158734 0.24480726 0.20810975 0.07896103 0.17593707
0.1394165 0.42324668 0.2138812 0.08776041 0.05508231 0.20760989 0.1491504 0.07967391
-0.11280633 0.10565508 0.1355962 0.200814 0.21557435 0.23299992 0.18323366 0.3113286
0.13324605 0.14378752 0.19422746 0.26346445 0.13362125 0.11449188 0.30012348 0.16042827
0.29870406 0.14973107 0.16186507 -0.043368682 0.038838293 1.5619974 0.19038847 -0.21032137
-0.6913267 0.7355191 0.8637464 -1.6065409 1.6085055 -0.99772775 0.94928366 -1.3199947
0.63964146 -1.3214892 0.6291817 -1.3437874 0.81422985 1.5257378 0.0021727085 1.6495544
1.9654156 0.16670235 -1.4590327 0.20032078 1.7623808 -0.41762057 1.2210879 0.5756724
0.006322562 0.13407397 0.023505626 -0.067259125 -0.02245005 -0.15042287 0.08818611 0.035523202
0.31220633 -0.017750474 0.16240558 0.28277946 -0.05779689 -0.013155235 -0.09586154 -0.13212185
-0.003511587 -0.01696732 0.1910447 -0.02784948 0.13426393 0.0307698 -0.017110676 -0.053719155
0.037450008 0.28823623 0.38878685 0.35095692 -0.04051777 0.17068978 0.09066888 -0.026223607
-0.10695175 0.04478802 -0.06388332 -0.06901094 -0.100252405 -0.02492804 -0.013907785 0.5444248
-0.12779197 0.33785674 0.14573061 0.45509884 -0.06140188 0.01628911 0.071707524 -0.039917137
0.0031999869 -0.010406184 0.12302827 0.21697001 0.35768524 0.05854714 -0.023310056 0.37844977
-0.046249673 -0.07441241 0.40891117 -0.10170883 0.07130814 0.33266494 -0.1462277 0.010677475
0.39459866 -0.039149117 0.2313654 0.16254723 -0.09699318 0.5010636 -0.04169722 -0.007444115
0.08515539 0.51313883 -0.081046216 -0.028576482 -0.014844299 -0.0073918942 -0.04207143 -0.026231324
0.3467939 -0.14250505 0.035696167 0.32278392 -0.05963487 -0.012161373 0.054369297 0.3065342
0.06727391 0.09092668 -0.117955215 -0.059717078 0.4458971 0.16842502 -0.061491136 0.12253305
-0.03800394 2.0600314 0.28071007 -0.76574713 -1.0129452 -1.4791486 0.74863243 0.05845234

l1.bias f4 [8]
00000000: 7000 413f 750e 513f 2c4b 8e3f 6d5c 863f
00000010: 684f f03f dd79 853f 5640 353f e22c 1f3f
0.7539129 0.81662685 1.1116691 1.0496956 1.8774233 1.0427815 0.70801294 0.6217786

l2.weight f4 [8, 8]
00000000: f2ab 8e3f 7d84 5bbe a83d bbbe 7685 0640
00000010: e8ab cd3f 4aef c93f 7862 d0bf 8a44 853f
00000020: 6e54 afbf b1fb f43f 6bd7 ec3f 97da f2be
00000030: db0f be3f ea3c f8be 75a1 f13f 768f 693f
00000040: 6b34 0fc0 5988 cf3f 09b4 0e40 101f 1840
00000050: 343a e93c f663 0040 fc12 97bd 88fe a0bf
00000060: 6253 973f 89ca c7bf a416 823f 1aa7 513f
00000070: 1f25 9d3f 3ad5 1240 59f8 a6be e51b 3d3e
00000080: 8fee da3f 1a85 1a40 b179 67bf e83d 243f
00000090: f7a2 1240 5ebe a2bf b500 c63f 8dad 1e40
000000a0: 3c00 773f 4f79 76bf 1a82 de3f d7b4 78bf
000000b0: 2c9d 1d3f b71c 943f 56a6 0e40 53e4 c8be
000000c0: 8bce 0440 8333 2740 6501 5840 99bc 4d40
000000d0: 6063 5740 9f6b 6440 fa7b 1440 cec5 c73f
000000e0: 0acf 0640 4908 82bf 7598 d8bb bab3 f53f
000000f0: 9e67 773f 1410 883f 4dbe dfbd 8d7e b73f
1.1146224 -0.21437259 -0.36570477 2.1018958 1.6068087 1.577615 -1.628005 1.0411541
-1.3697641 1.913931 1.850324 -0.47432396 1.4848589 -0.48483974 1.8877398 0.9123453
-2.2375743 1.6213485 2.2297385 2.376896 0.028470136 2.0061011 -0.07376668 -1.2577677
1.1822321 -1.5608684 1.0163159 0.818956 1.2276953 2.2942643 -0.3261135 0.18467672
1.7104052 2.4143739 -0.9042006 0.6415696 2.2911966 -1.2714345 1.5468966 2.4793427
0.9648473 -0.9627885 1.7383454 -0.9715094 0.6156795 1.1571263 2.2289023 -0.39236698
2.0751064 2.612519 3.375085 3.214636 3.3654404 3.5690687 2.320067 1.560724
2.1063867 -1.0158778 -0.006609971 1.9195473 0.9664248 1.0629907 -0.10924969 1.4335495

l2.bias f4 [8]
00000000: 85bc 4e3f 6c2d 883f cfc4 9a3f d61f 9f3e
00000010: c689 4b3f dc0f bb3e 081c 1540 b8f8 463e
0.8075641 1.0638862 1.2091311 0.31078976 0.795071 0.36535537 2.329836 0.19430816

l3.weight f4 [8, 8]
00000000: e7fb 903f fe39 02bf 8f22 7ebf dadb 8c3f
00000010: 470d cb3e 3bc5 bd3e 18a6 c23f 9955 b13f
00000020: 54d1 cd3f eaa8 003f 6c21 50bf fc6f c53e
00000030: 6273 2640 1ca7 85bf cadd f53f 57d7 e63f
00000040: efe4 2ebf 1152 193f 9e50 5d3e 34a5 fb3c
00000050: 4218 a73e 0203 d93f 2e6a 9e3e 7cf8 2f3d
00000060: f977 3fbf d87c 7d3f 1f13 74bf 322f a8be
00000070: 2047 5a3f 7684 8e3f 3c68 823c 7464 7dbe
00000080: ba6a f13d a23b c53f d3ff 1240 5d5e 3c3e
00000090: 7f86 803e b4ae ad3e d550 0340 6e5d 97be
000000a0: 7714 c43e 94f2 d6bc 7e4e 77be aa9e e5be
000000b0: 9fd4 123f c428 92bf fcec 093f e0be e2be
000000c0: 4dfd 22bf 68f1 e03e 66c7 3abf e2cf 17c0
000000d0: de24 ba3f 9781 debf 2bdb 7abf d43c b3be
000000e0: d979 bfbf 2ce4 b93f 103b 81bf 7c40 8abf
000000f0: b008 563f 3b29 a83f 92c2 4cbc 52b4 b6bf
1.1326874 -0.5086974 -0.9927148 1.1004593 0.39658567 0.37064537 1.5206938 1.3854247
1.6079507 0.5025774 -0.81301 0.38562 2.6007924 -1.0441623 1.920831 1.8034467
-0.68318075 0.5989085 0.21612784 0.030718423 0.32635695 1.6954043 0.30940384 0.042961583
-0.7479244 0.9901862 -0.95341676 -0.32848507 0.8526478 1.1134174 0.015918843 -0.24745351
0.117879346 1.5408823 2.2968643 0.18395372 0.25102612 0.3392235 2.0518086 -0.2956347
0.38296863 -0.026238717 -0.24151036 -0.44847614 0.57355684 -1.1418691 0.53877234 -0.4428625
-0.63667756 0.43934178 -0.7296051 -2.3720632 1.4542501 -1.7383298 -0.97990674 -0.35007346
-1.495906 1.4522758 -1.009615 -1.0800929 0.83607006 1.3137583 -0.012497561 -1.4273779

l3.bias f4 [8]
00000000: 1424 573d 66b8 d13e 48bd d53e 85e8 5bbb
00000010: 1377 273f 1a1e b13e d9a1 87be ae28 a83e
0.05252464 0.40960997 0.41745973 -0.003355534 0.6541607 0.34593278 -0.26490667 0.32843536

l4.weight f4 [26, 8]
00000000: ba31 6bbf 6a1a 37bf d023 213f ba32 d5bd
00000010: 2d7f 0b3f d8d2 4d3d 98a6 553f e6f2 323f
00000020: ad9d a1bd b3c3 623e 2b91 b5be 9e08 8f3e
00000030: bdc3 7cbf 93b2 8dbe 4123 d93e 3c12 dfbd
00000040: 5a01 10bf 8c7e abbe c14a eebf cc7b 24bf
00000050: 9893 29be 0621 763e 3206 8bbe 8545 0fbf
00000060: ab62 e83e 06cb 243e cc19 61bf 16db 48bf
00000070: bc47 c5bf d390 053f 0fcc 603e dd1f fabe
00000080: 9276 71bd aec1 153f 60ed 84bf f58d a23a
00000090: 5732 a8bf 5199 f63e ab86 663f b9cb e2be
000000a0: 22b5 15bf 3c0a 9cbe 29eb 20bf 2a6d f7be
000000b0: 05e3 7a3a 47b9 84bd 5954 603e 7e90 fbbc
000000c0: 581c 0e3f 794a d5bd 6ff9 533d 5a17 883e
000000d0: 1ea0 d5bf b2ac e9be 2547 95be 76e3 b3be
000000e0: 8736 1cbf 9dd3 983e a81e 11bf b050 2a3d
000000f0: 11c8 dfbe 2023 493f 0f60 8d3f 166b 4e3f
00000100: c790 233e b436 83be 14ba eb3e 7733 f43e
00000110: 7d84 7fbf 3956 b9be 2f80 e8bc 2bcb 653f
00000120: 8afd 043e 6b72 3abe 8193 0b3f ca71 143f
00000130: 9529 57bf 4d80 0f3f 6957 3a3f 5912 803f
00000140: 61be acbc 82e3 56bf 06f2 c63e df8b 233f
00000150: e7d1 aabe ce8e 54bf b3a1 48be 11a8 9d3e
00000160: d734 5cbf ed9c 31bf ebec 19bf 9f50 17bf
00000170: d24d 2a3e 1bd9 abbc c2bc 89be d893 29bf
00000180: 6e22 2c3f 777a 4b3e e1a6 fe3e 31bb f33e
00000190: b350 06c0 88a4 b73d c690 5b3c c587 f03e
000001a0: 2abf 52be d367 aabe fea5 bebe b873 af3d
000001b0: 52a5 1ebc 761f 19bf 28c7 193f efc5 143f
000001c0: 5163 0a3f 1346 21bf 95d9 50bf 410b 13bf
000001d0: a026 6bbf c49d bcbc d831 9bbe 00ee 24bf
000001e0: 2969 a63c 9036 f93e f2e8 ccbe 6fa4 253f
000001f0: fa95 bebf e5ee 213f 72e9 1a3f 83aa 9c3e
00000200: 047b 98bf 7aa3 47bf 5661 c4be 39d2 79be
00000210: 7f97 0e3f e3e8 b03e 0346 f9bb ca61 f3bd
00000220: 832e 5ebf c1cf 5ebf cfdc 193f 96ee 92be
00000230: ae6f b7bd 0af6 39be d9f4 19bf 582a 8fbe
00000240: 7c3d 55bf e28d 6abe 3382 d53d 335b 243f
00000250: c07b b43d e212 d53e a4d7 763f 3162 8f3f
00000260: 6d8c 45bf e6a3 d2be 9634 c5bd de4e 51be
00000270: 92d9 c63e 0046 ea3e 8f6b 8d3f 3ef5 42bd
00000280: 3d55 66bf 9c82 6dbf a092 8c3e 9bce 583d
00000290: 2149 8d3e 3dfe 09bf 8597 a7be e2d5 823f
000002a0: 7806 b03e 6ced 79bf 7618 0bbf 8587 27bf
000002b0: fcd6 98be a898 17bf a59e aebe 6fb5 53be
000002c0: fa04 b1be 66d8 1dbf 5707 bc3e 22f6 4c3f
000002d0: 676f 2cbe 882e a2be dc66 603e 977b 9f3f
000002e0: e844 02bf adb5 253e 0cea b5bf 176a a53a
000002f0: c06a 92be 1196 9e3e 0747 133f e62b 9b3e
00000300: 1e6e 84be 5ec6 aebe 3b4f 683e f9b8 6d3c
00000310: e334 21bf 0684 cebd 5c7c 25be 2e5a 5dbd
00000320: 115d 9dbe 3a40 173e be08 2bbf 3d69 acbf
00000330: 6542 16bf b02f 393f 366d 6d3f fc53 f0be
-0.9187275 -0.7152468 0.6294527 -0.10410066 0.5449093 0.050249904 0.83457327 0.69901884
-0.078914024 0.22144966 -0.35462317 0.27936262 -0.9873617 -0.27675304 0.4240971 -0.1089215
-0.5625206 -0.33494985 -1.8616563 -0.642514 -0.16560209 0.24036035 -0.27153164 -0.55965453
0.45387778 0.16093072 -0.8792999 -0.784593 -1.5412517 0.5217411 0.21952842 -0.48852435
-0.058950968 0.58498657 -1.0384941 0.0012401926 -1.3140363 0.48163846 0.90049237 -0.44296053
-0.5847951 -0.30476558 -0.62858826 -0.48325473 0.0009570572 -0.06480651 0.21907176 -0.030708548
0.55512 -0.10414595 0.05175155 0.26580316 -1.6689489 -0.4563957 -0.2915584 -0.35134476
-0.610207 0.29848948 -0.566874 0.041580856 -0.43707326 0.7856922 1.104494 0.8063215
0.15973197 -0.25627673 0.46040404 0.47695515 -0.99811536 -0.36198595 -0.028381435 0.89763135
0.12987342 -0.1820771 0.5452195 0.5798613 -0.84047824 0.56055146 0.7278963 1.0005599
-0.021086873 -0.839409 0.38856524 0.638853 -0.33363268 -0.830304 -0.19592933 0.30792287
-0.8601813 -0.69380075 -0.60127133 -0.59107393 0.16631249 -0.020977547 -0.26901823 -0.66241217
0.67240036 0.19870935 0.49736694 0.47603753 -2.0986755 0.08966929 0.013401216 0.46978584
-0.20580736 -0.33282337 -0.37236017 0.085669935 -0.00968297 -0.5981363 0.60069513 0.5811452
0.54057795 -0.6299755 -0.81582004 -0.5743905 -0.9185581 -0.023024447 -0.30311465 -0.6442566
0.020313816 0.4867444 -0.40021473 0.6470403 -1.4889519 0.6325515 0.6051246 0.3059884
-1.1912541 -0.7798382 -0.3835551 -0.243966 0.55699915 0.34552678 -0.007607223 -0.11883886
-0.8678972 -0.8703576 0.6010255 -0.28697652 -0.08956848 -0.18160263 -0.6013923 -0.27961993
-0.8329694 -0.22905686 0.10425224 0.6420166 0.08812666 0.4161597 0.9642279 1.1201841
-0.771674 -0.4114067 -0.096291706 -0.20440242 0.38837868 0.4575653 1.1048449 -0.047597162
-0.89973813 -0.9277742 0.27455616 0.05293141 0.27594855 -0.5390356 -0.32732788 1.0221522
0.34379935 -0.976279 -0.543342 -0.6544116 -0.2985152 -0.5921731 -0.3410541 -0.2067468
-0.3457411 -0.6165832 0.3672435 0.8006307 -0.16839372 -0.31676126 0.21914238 1.2459592
-0.5088639 0.16182585 -1.421205 0.0012620118 -0.2859707 0.30973867 0.57530254 0.3030693
-0.25865263 -0.34135717 0.22686474 0.014509433 -0.62971324 -0.10083775 -0.1616072 -0.05404108
-0.30735067 0.14770594 -0.66810215 -1.3469616 -0.5869506 0.7233839 0.9274477 -0.46939075

l4.bias f4 [26]
00000000: fcba ef3d a2d3 68be 4b0f d7be 8344 70bd
00000010: f973 89bd 0502 c7be 7d01 93be 4e49 9fbc
00000020: bbcd 803e de54 6ebe 6a82 3f3e 5ba6 debe
00000030: 71e8 953b 269b 9ebd 3f27 853d 22ce 533e
00000040: 0d12 973e 76aa 0a3e 4cce 9fbb 44b2 9d3e
00000050: 3441 54be 53f5 cebe 093b c9be 0956 e83c
00000060: d025 8f3d 0d09 2cbe
0.11705586 -0.22736982 -0.42003855 -0.058659088 -0.06711573 -0.38868728 -0.28712073 -0.019444134
0.2515696 -0.23274562 0.18702093 -0.43486294 0.0045748283 -0.07744436 0.06501626 0.20684102
0.2950596 0.13541588 -0.0048768874 0.30800068 -0.20727998 -0.40421543 -0.39302853 0.028361337
0.06989634 -0.16800328
