DL_Model/Pytorch_Model/data_info.pth (torch, 10776 bytes, 8 tensors)

l1.weight f4 [8, 124]
00000000: ba50 433e 72b3 403f ca59 d13f 1e95 d0bf
00000010: 3788 6cbf 34c4 ccbf fdd6 a7be 99a7 4dbd
00000020: 1168 e93f de7b ea3f f6f8 813f 883b d43c
00000030: 41e8 a3bf f6b7 aabf 0030 36be 62ab e73f
00000040: ed5f 0abe a59a 7f3f 6f01 1b3f cf28 36be
00000050: 0afd 1640 0b42 073d 8318 0240 c488 8e3f
00000060: a00a 88bf e3e8 973f 876b a23e 3eb5 1b3f
00000070: a0f6 c4bc 5dab e53d 630d d83d 0926 183d
00000080: 6aab e9bd 8795 443c 7ede 93bc f6df 3e3e
00000090: 6461 ab3e 74d2 a5bd c294 3f3e 6523 be3e
000000a0: c7be 0abe 84d0 4f3d 1e03 aabc 68e7 7c3d
000000b0: 2f59 5c3e cd8c 2bbd 4ca7 0a3e aa7c 3d3e
000000c0: ab80 d83d 92e9 5b3e 3aff dc3d 78cd 143e
000000d0: 971e 1abd 3ea1 e73e a687 213f f894 5a3e
000000e0: ef88 463c bd30 2b3e 6cc3 8a3e d474 f03d
000000f0: ca01 3e3e a63c f0bd dd32 863d 370d 08be
00000100: ef15 103c 5d93 4fbd 68ce 69bd a830 313f
00000110: aec4 10bd 6f9d 153e 16ad dcbd 3d9f 0d3f
00000120: 49f3 923d 770c b43d 6539 cfbd 1c5c 213e
00000130: d298 913b 22c0 ad3d 9c63 313e 6537 bb3e
00000140: 55fe 6a3e 84b6 663e 6e23 0e3e 899d 25bf
00000150: 10ac 1a3e 5867 823d a5ce c53e 7f14 11be
00000160: c48d a8be 6b94 033f 5fd0 06be 13f7 493e
00000170: 920c a03e 89b1 83bd da83 073e 5ee9 2d3e
00000180: 947f f0bb 455a 2d3f 17e6 543d 468b aabb
00000190: a491 903d da99 f53d 32ce 5ebc e157 ed3d
000001a0: 782e 68bd 6d61 423d 59e8 cb3d e7aa ffbc
000001b0: deb4 983e 32b0 eebc d59c 953d 3fb6 803e
000001c0: 2490 0f3d ded9 913d 6328 7bbd 0478 833e
000001d0: 9392 413e 64c3 97bd 1254 10bd b4a6 2f3e
000001e0: cfb2 e23e acca 483e c88f e23d cb22 8a3d
000001f0: 9d22 a73c de65 36bf bc09 8fbd 29a3 e13f
00000200: 4383 c03e 3eb7 db3f 5064 8d3f a4d4 b4bf
00000210: 50fc 7a3e a1e2 953f 6300 9c3f 4fc1 2ebf
00000220: ae2c 9d3f a117 2a3f 262f d93f a2b5 8b3f
00000230: 4102 363f f5eb c53f ec08 34bf daa6 0d40
00000240: aad6 8bbe caeb b7bf b4c2 043e 3a86 19bf
00000250: 263b 0f40 2fbc 98bf 7628 453f 954c da3e
00000260: e28a 3a3d d3b2 043e e969 bd3d 9bfc 943c
00000270: a17b e83c 73d0 0e3e 07dc 5dbd 59fb 063e
00000280: e18b cc3d 37ec f83d f586 b73d 6f04 873e
00000290: 52c5 0e3e 57fe a23d 8a4d ec3d babe 2b3e
000002a0: 14bf ee3d 8923 2dbc ac0c 1e3e 88fe 013e
000002b0: f4db 07bd 9e8a 053d 4009 233e 3728 b3bc
000002c0: 7a46 c0bd 4aaf bd3e 6923 113f 5224 fb3d
000002d0: ca81 c33d c84d 5e3d 377c 903d 0475 ea3d
000002e0: 0646 733e 63d8 0ebe db6f 573d 1953 6a3d
000002f0: 825b 003e dc62 de3d de10 22be 9a2c e73e
00000300: c566 cc3d 27b2 983d 292e e1bd 15a1 ac3e
00000310: 1821 b83d d4dd fd3d 4690 f8bd a5da c43d
00000320: f500 b03d 0591 563d 8ca1 823e 498d 9f3e
00000330: c58d bb3d 4145 293d 6139 8dbc 9a26 ae3e
00000340: 617b d03d dd61 1f3e 2b52 a43e 0d45 543e
00000350: bb65 afbe 6e84 eb3e 6552 9f3d 6898 463d
00000360: 7951 a03e 0492 803d f4f8 003e b027 d33d
00000370: 1073 d23c 7cf7 013f 90c8 203e 42ed 1f3e
00000380: 11ac d23d 34b2 2a3e 13c6 0a3e b626 ee3d
00000390: 5cce 0ebe 9b9e 0e3e 424b 8c3d a600 cd3d
000003a0: 51d0 7f3e e7c2 173e aeea 98bc f8d5 f53d
000003b0: 2096 8f3d 357e 6c3d 95c3 2a3e d47c 463e
000003c0: facb d63c 944c 9abc a53f 6f3e 230f 4e3e
000003d0: a33b bd3e d523 223e 1d19 4c3d 1f89 e53d
000003e0: 63c1 6a3d fc55 bebf 6bd7 a0bf 810a c83f
000003f0: 60a9 b7bf 5cd4 f33f 93bd a83f 792f 0cbf
0.19073763 0.7527381 1.6355526 -1.6295507 -0.9239535 -1.5997376 -0.3278121 -0.05020866
1.8234884 1.8319051 1.0154102 0.025907293 -1.2805253 -1.333739 -0.17791748 1.8099177
-0.13513155 0.99845344 0.6054906 -0.17789005 2.3591943 0.033021968 2.032746 1.1135488
-1.0628242 1.1867946 0.31722662 0.6082343 -0.024043381 0.112143256 0.10549428 0.03714565
-0.11409648 0.011998541 -0.018050428 0.18640122 0.3347274 -0.080967814 0.1870909 0.3713638
-0.13549338 0.050735965 -0.02075344 0.061744124 0.21518396 -0.041882325 0.13540381 0.18504587
0.105714165 0.21475819 0.10790868 0.14531505 -0.03762683 0.45240206 0.6309761 0.2134589
0.012117608 0.16717811 0.2710222 0.11741033 0.1855537 -0.11730318 0.0655267 -0.13286291
0.008794292 -0.050677646 -0.05708161 0.6921487 -0.03534382 0.14610837 -0.10775201 0.55321103
0.07175309 0.0879144 -0.10118369 0.15757793 0.0044432664 0.08483912 0.17323154 0.365657
0.22948582 0.22530562 0.13880703 -0.64693505 0.15104699 0.063673675 0.3863422 -0.14167975
-0.3292066 0.5139834 -0.13165425 0.19723158 0.3125959 -0.064303465 0.13233891 0.16983554
-0.0073394272 0.67715865 0.051977243 -0.005204591 0.07059029 0.119922355 -0.0135989655 0.11589027
-0.05668494 0.047456194 0.09956426 -0.031209422 0.2982549 -0.02913675 0.07305304 0.25139043
0.035049573 0.07121633 -0.061317813 0.25677502 0.1890357 -0.07410315 -0.035236426 0.17153436
0.44277045 0.19608563 0.1106258 0.067449175 0.020402247 -0.71249187 -0.069842786 1.7627918
0.37600145 1.7165296 1.1046238 -1.4127393 0.24510312 1.1709787 1.2187618 -0.68263716
1.227926 0.66442305 1.6967514 1.0914805 0.7109719 1.5462633 -0.70326114 2.2133088
-0.27312213 -1.4368832 0.12964898 -0.5997044 2.2379851 -1.1932429 0.77014863 0.42636552
0.045542605 0.12958841 0.092487164 0.018186858 0.028379263 0.13946705 -0.054164913 0.13181819
0.09987617 0.121544294 0.08961288 0.2637057 0.13942459 0.07958668 0.11538227 0.16771975
0.11657539 -0.010567554 0.15434521 0.12694752 -0.033168748 0.0326029 0.15921497 -0.021869762
-0.09388442 0.37047797 0.56694657 0.12262787 0.0954624 0.054273397 0.07054942 0.114481
0.2375718 -0.13949732 0.052596908 0.057208154 0.12534907 0.108587 -0.15826747 0.45151216
0.09980539 0.07455855 -0.109951325 0.33716646 0.08990687 0.12395826 -0.12136893 0.09612016
0.085939325 0.052384395 0.25513875 0.3116248 0.091579 0.04132581 -0.017239274 0.34013826
0.10179783 0.15564676 0.3209394 0.20729466 -0.34257302 0.45999473 0.077793874 0.04848519
0.3131216 0.0627785 0.12594968 0.10310304 0.025689632 0.50768256 0.15701509 0.1561785
0.10286725 0.16669542 0.13552122 0.11628477 -0.13945907 0.1392769 0.06850292 0.10009889
0.2498181 0.14820443 -0.018666591 0.12003702 0.07011056 0.057737548 0.16676171 0.19383556
0.02622031 -0.018835343 0.23364122 0.20122962 0.36959562 0.15833981 0.049828637 0.112077944
0.057313334 -1.486999 -1.256574 1.5628206 -1.4348564 1.9049182 1.3182853 -0.5475994

l1.bias f4 [8]
00000000: f766 803f a203 893f 8b43 0a3f a9c2 533f
00000010: 8f7c 7e3f 8776 1140 6f8e 7a3f 2443 753f
1.0031422 1.0704234 0.5400931 0.827189 0.9940881 2.2728593 0.97873586 0.95805573

l2.weight f4 [8, 8]
00000000: 7017 9ebe d931 0840 121d 4740 adb6 2f40
00000010: 361f 07bf b2c3 983f 1309 a6bf 6a32 2e40
00000020: e6e9 3b3f e2db 1ec0 08e7 a3be c87c 9b3f
00000030: 358c ccbf d6f3 363f 7a1d 933f e523 36c0
00000040: 23ed 97be 600f 0f3c d015 9ebe f8db 0e3e
00000050: 3047 393d 50af c4bd f881 0abd afb6 01be
00000060: a65a 803f 7cf2 0340 22c0 b6bf 3e13 d9bf
00000070: df7e 3140 7869 813f 3a13 3440 13d9 523f
00000080: ca93 06c0 f6e6 1340 1cce 0840 946c 45bf
00000090: c8a7 0340 7cb7 a33e 2c99 0340 e2e0 0540
000000a0: a3b5 0c3d ec7e 9dbe a565 20be dab4 503e
000000b0: ae9a e73d d0d7 bbbe b2cd 563e b2ae 033e
000000c0: 0043 30bc ed0e 1cbe 1cc1 9bbd 6e13 473e
000000d0: 9c62 7abe c82c 5fbe 21d6 8f3e fcab a4bd
000000e0: e6d2 5740 cb23 1fbf 7c5e 8dbf 961d f43f
000000f0: 8c64 ad3e 4ca5 2e40 9db3 e53d 0a89 4fbf
-0.30877256 2.1280425 3.1111493 2.7455246 -0.52782 1.1934721 -1.2971519 2.721827
0.73403776 -2.4821706 -0.320122 1.2147455 -1.5980288 0.71465814 1.149337 -2.8459408
-0.29673108 0.008731693 -0.30876017 0.13951099 0.045233905 -0.09603751 -0.033815354 -0.12667345
1.0027664 2.061675 -1.4277384 -1.6958997 2.7733686 1.0110312 2.8136735 0.8236248
-2.1027703 2.3109717 2.13758 -0.771188 2.0571156 0.31975925 2.0562239 2.0918508
0.03435291 -0.30760896 -0.15663774 0.2038149 0.113088 -0.3668809 0.20976904 0.1285961
-0.010758162 -0.15240069 -0.07605192 0.19441006 -0.24451679 -0.21794426 0.28093055 -0.08040616
3.3722472 -0.6216399 -1.1044459 1.9071529 0.33865774 2.728839 0.11215899 -0.8106848

l2.bias f4 [8]
00000000: dcb3 0e3f f9f3 a53e b87f 50bd 2e44 9f3f
00000010: a62c 923e 2de1 aebe fbf6 99be 6722 af3f
0.55743194 0.324127 -0.050903052 1.2442682 0.2854969 -0.3415617 -0.30071244 1.3682374

l3.weight f4 [8, 8]
00000000: e745 78be be90 973f e5bb 5abe ed7a dbbf
00000010: 6a2e dabd 4ac5 4e3c c6b8 3d3e 758c b4be
00000020: dffb a93e 0e6b 85bf 7005 4cbd 3c8f 0dbf
00000030: 3edf 90be 8066 07be c13c ac3e b59c d03f
00000040: 4586 0940 10a5 62bf 7a6e 91be 4def 3ebf
00000050: 10bf 0a3e b31c 453e e0a2 bcbc e2c1 a53f
00000060: 109f d6bd 7cfa 7940 922c 703e 7f91 b2bd
00000070: aad8 9b3e 2cf5 463e 508f bd3c 6ac8 d43e
00000080: b941 aabf 86c6 59bf 2254 2e3e 7250 0d40
00000090: c0f5 e43f c3e2 a4be 6807 47bd 1608 5dbf
000000a0: 73e8 2a40 655a 7e3e b473 973d 3c95 03be
000000b0: 5fcb fe3f 8b1c b63e 82fa 04be 07ca 92bf
000000c0: aac9 dbbe 76d7 db3f d066 f83d 39e8 de3f
000000d0: 2922 bf3f f703 2c3e 7a6c 163e 74b0 19bf
000000e0: 717a 9dbf c638 a6be b1f5 993e 7477 f83f
000000f0: ab09 1ebf 4d24 a3be 9ac3 263e 9e3c 0e40
-0.24245416 1.1841047 -0.21360739 -1.7146889 -0.10653384 0.01262028 0.18527517 -0.3526341
0.33199975 -1.0423295 -0.049809873 -0.55296683 -0.2829532 -0.13222694 0.33640102 1.6297823
2.1488202 -0.88533115 -0.284046 -0.74583894 0.13549447 0.19249229 -0.023026884 1.2949793
-0.104795575 3.9059134 0.23454502 -0.087191574 0.3043874 0.19429463 0.023139626 0.41559154
-1.3301307 -0.8506855 0.17024282 2.208035 1.7887497 -0.32204255 -0.048591048 -0.86340463
2.6704376 0.2483917 0.073951155 -0.12849897 1.9905814 0.35568652 -0.12986186 -1.1467904
-0.42927295 1.7175128 0.12128985 1.7414619 1.49323 0.16798387 0.14689818 -0.6003487
-1.2302991 -0.3246519 0.3007026 1.9411454 -0.617335 -0.31863633 0.16285554 2.2224498

l3.bias f4 [8]
00000000: 13b3 a9be a70a 2abe e747 45bd 6b42 6dbe
00000010: 4ee5 933e 4909 66be 2366 693e 705c 8b3e
-0.33144435 -0.16605626 -0.048164275 -0.23169868 0.28885883 -0.2246448 0.22792868 0.27218962

l4.weight f4 [26, 8]
00000000: b4ec 223e 586d a9bf 3a60 bcbf ca43 3a3d
00000010: 36d1 a93e 7b2b dcbf 7bc6 ef3e f431 093f
00000020: 213b 8dbd b0a1 823d 6000 20bf 7294 1dbf
00000030: dde1 8c3e 3699 63bf dc12 bebe ae52 493e
00000040: df17 593f f288 c6bf 0379 833c 32c5 0cbf
00000050: b4a3 b0be 6329 423f 771a 33bd 224a 1bc0
00000060: 0001 1bbe 9c11 debf bdfb 10c0 2682 1ebe
00000070: 6e89 1e3f 8593 07bf 47f4 d63e cc23 0b3d
00000080: 333d 7b3e 8e7a 48bf a8ee 24bf 2b50 743e
00000090: c672 e03e 5ef9 f23e 2804 a93c daba c8bf
000000a0: 99ed 873f be58 563e 6781 a03e 462a 4ebe
000000b0: 1f58 1cbf f309 803e e8ce 3fbd 69d7 40bf
000000c0: a512 0440 9f17 963e 1511 f1bd 7305 cd3f
000000d0: 22cf 9ebf 8eb2 64bf 6a9e 16bf 9fa9 043b
000000e0: 50fb 873e 02e3 ec3e 9c7f 003f 2bfd 75bf
000000f0: 6ecf aabf e09e 42bf 0c82 f8bf 1231 cabe
00000100: 83db b33d 3ce4 57be a363 8bbe 6d51 1bbf
00000110: b88e acbe 50c9 20be ef88 f0be 3de2 643e
00000120: c804 50bd 2477 7abf 550f 73bf 5d7d 42be
00000130: 815e ca3e 050e dfbe 271b 22be d44b 9e3e
00000140: ca20 773f b648 6fbe 882f 303d efca 1e3f
00000150: c123 81be 225d 703e 7c26 b8be 2ae6 a1be
00000160: 09e1 173c 3c19 b0bf 8b9f bfbf ee69 8fbe
00000170: 9272 043f ec45 973e cd3f 193f 214e a2bf
00000180: 7ee4 c93f 0bd8 c4be 0ee8 da3e e004 043e
00000190: 9012 31bf cac3 293f 5728 17be 9905 00c0
000001a0: e55d 10bd db43 c6be d77f aebf b2f2 92be
000001b0: fb71 953e 4be6 903d 310c 9f3e 1925 91be
000001c0: ec0b b73e 314a 013d eff6 d73d 3a24 38bf
000001d0: 0510 2cbf 45fc 4f3d f46c 1fbf 26cf 41be
000001e0: 5809 ab3f 232e 653c dcdd 033f dfaa a5be
000001f0: 6949 b3bf 2ca1 183f e3b5 b0bf 6d4b f0bf
00000200: 84d3 ae3e b97b 14bf 183a dfbe 8937 65be
00000210: 6c6f b73d 7f73 d03c 6406 09be 7849 1c3e
00000220: 3858 8b3f 02e0 d73e 1a67 e63e ae05 983e
00000230: da16 94bf d2c4 ac3d 2ca8 96bf beb7 56bf
00000240: b6a5 6a3e 9ab6 30bf 0acc a1bd abdd 6dbe
00000250: 321b 413e 7e22 04bd 39ff 833e 5544 3ebf
00000260: 04f0 04bb eaef 4a3e b54d 77be e926 34bf
00000270: b22a 0dbf b804 c0bf 1bd4 2ebf 75a5 c83e
00000280: b9c4 843f 8f3e c83d 74fe 53bf 75f9 9d3f
00000290: 64cd 2dbe 043d 8cbf ae25 debd 6a23 903e
000002a0: ebb4 553e e339 f83e e515 0a3e 2c18 aabf
000002b0: 688d 07bf 15b4 5fbf e3e4 92bf a86a 1c3e
000002c0: 6dd2 9e3e da1d b83e a3c6 bcbe ac44 f63d
000002d0: 7501 8bbf c1cc 3abf d8b0 5abf 1544 5b3e
000002e0: 07a3 2b3f 5951 4dbe 9bf7 c83d bffe fbbc
000002f0: d81d adbc c8bf 933e 7073 d33c d56f 89bf
00000300: 368c 0bbd dd7d f6bd 910c 9dbf 23f3 d23e
00000310: 8a6c 1f3a 88dc 09c0 fc9d b7be 2136 013f
00000320: ccf4 033f ac71 143e e679 f5bc 1274 1bbe
00000330: be31 593c 727c 0d3e 12e5 6ebe 0674 f7be
0.15910608 -1.3236494 -1.4716866 0.045474805 0.33167428 -1.7200769 0.46831116 0.5359185
-0.068960436 0.06378496 -0.6250057 -0.61554635 0.2751607 -0.88905656 -0.37123764 0.19660446
0.8480205 -1.5510542 0.016048914 -0.54988396 -0.34499896 0.758444 -0.04372641 -2.4263997
-0.151371 -1.7349124 -2.265365 -0.15479335 0.6192845 -0.5295947 0.41983244 0.033969685
0.24535064 -0.78312004 -0.6442666 0.23858707 0.43837565 0.47455877 0.020631865 -1.5682023
1.0619384 0.2093229 0.31348726 -0.20133314 -0.6107196 0.2500759 -0.04682818 -0.7532869
2.063638 0.29314896 -0.11770836 1.6017288 -1.2406962 -0.8933495 -0.5883547 0.0020242704
0.26558924 0.46266943 0.50194716 -0.9608943 -1.3344553 -0.76023674 -1.9414687 -0.39490563
0.08782103 -0.21083158 -0.27224454 -0.6067112 -0.33702636 -0.15701795 -0.46979472 0.22351928
-0.05078581 -0.97838044 -0.9494527 -0.18993135 0.39525226 -0.43565384 -0.1583067 0.30917227
0.9653441 -0.23367581 0.04301408 0.620284 -0.2522259 0.23473027 -0.3596686 -0.31620914
0.009269961 -1.3757701 -1.4970564 -0.28010505 0.5173732 0.29545534 0.5986298 -1.2680093
1.5772855 -0.38446078 0.4275517 0.12892485 -0.6916895 0.66314375 -0.14761482 -2.0003417
-0.035245795 -0.38723645 -1.3632764 -0.28700787 0.29188523 0.07075175 0.3106399 -0.28348616
0.35751283 0.031564895 0.10545146 -0.7193028 -0.67211944 0.050777692 -0.62275624 -0.18926677
1.3362226 0.013988051 0.51510406 -0.32356927 -1.4006778 0.5962093 -1.3805507 -1.8773018
0.3414575 -0.58001286 -0.4359901 -0.22384466 0.08956799 0.025445698 -0.13381344 0.15262401
1.0886297 0.42163092 0.45000535 0.29691833 -1.1569474 0.08435978 -1.1770072 -0.8387412
0.22914776 -0.6902863 -0.079002455 -0.23229091 0.1885803 -0.032259457 0.25780657 -0.74323016
-0.0020284662 0.19818082 -0.24150737 -0.7037187 -0.5514327 -1.500144 -0.682924 0.39188734
1.0372535 0.09777557 -0.8281014 1.2341753 -0.16972882 -1.095612 -0.108470306 0.2815202
0.20869796 0.48481664 0.13484915 -1.3288627 -0.52950144 -0.8738416 -1.1476101 0.15275061
0.31019917 0.35960275 -0.36870298 0.12024817 -1.085982 -0.7296868 -0.8542609 0.2141269
0.67045635 -0.20050563 0.09812852 -0.03076112 -0.021132395 0.28857255 0.02581188 -1.0737253
-0.034069262 -0.12035725 -1.226946 0.41201124 0.0006081542 -2.1540852 -0.3586272 0.5047322
0.51545405 0.14496487 -0.029965352 -0.15180996 0.013256488 0.13817003 -0.23329571 -0.48330706

l4.bias f4 [26]
00000000: 2f27 bbbe 2fe3 89be 1a49 73bd 3bb0 06bd
00000010: 5ac0 87be 80f4 7dbe 3227 1f3e cc0b f53d
00000020: d3c1 12be dfcf 9dbe a0b4 66be 2c9d 63be
00000030: 4a63 ee3e 29ad cdbe f056 623d 0692 d2bd
00000040: f93a 6aba 9005 74be 543d 853d 4c3d 513e
00000050: 417b ad3b 986c ed3d 6e14 8bbd fd6f 98be
00000060: 3c16 893e 5db9 773d
-0.36553332 -0.2693114 -0.059395887 -0.03288291 -0.2651394 -0.248003 0.15542296 0.11965141
-0.1433175 -0.30822656 -0.2252984 -0.22227925 0.46560127 -0.40171173 0.05525869 -0.10281758
-0.0008935179 -0.23830247 0.06505838 0.20433539 0.005294234 0.11592978 -0.06791006 -0.2977294
0.26774776 0.06047951
