DL_Model/Pytorch_Model/data.pth (torch, 13788 bytes, 8 tensors)

l1.weight f4 [8, 221]
000000 a1 0b fa 3b eb 05 b3 3e fc 14 1d 3e 2e e1 2d 3d
       0.007630781 0.34965453 0.15340036 0.042451076
000010 95 19 e1 3d 47 65 4f 3e 15 27 82 3e 05 4d 76 3e
       0.109912075 0.20253478 0.25420442 0.24052818
000020 4e 96 60 3e 55 4f 58 3e f0 e4 72 3e 98 bc 6b 3e
       0.21932337 0.21124013 0.23720145 0.23021162
000030 22 40 63 3e 6f 32 3b 3e 65 30 8e 3e dc 91 6d 3e
       0.22192433 0.18280958 0.27771297 0.23200172
000040 8f 72 76 3e f6 ff 29 3e 77 53 68 3e 97 e7 83 3e
       0.24067138 0.16601548 0.2268809 0.25762627
000050 02 ae 91 3e d2 2a 6c 3e d9 75 57 3e fc 55 81 3e
       0.2845307 0.2306321 0.21041049 0.25260913
000060 1f 28 91 3e 9c e8 81 3e 04 ea 42 3e 22 85 60 3e
       0.28350922 0.2537278 0.19034582 0.21925786
000070 b1 b5 8d 3e 3f 90 60 3e 6d 70 7b 3e 2e 52 7a 3c
       0.27677682 0.21930026 0.24554606 0.015278382
000080 fc 9e 62 3d 72 b1 cf 3e 8f 52 1e 3f 20 a1 b0 3d
       0.0553274 0.40565068 0.61844724 0.08624482
000090 2d e0 ab 3c e0 11 3e 3e 0a cb 29 3d 60 da 19 3e
       0.020980919 0.18561506 0.0414534 0.1502471
0000a0 1e 44 5b 3d d6 33 00 3e 3a 87 05 3f f0 20 37 3e
       0.05353176 0.12519774 0.52159464 0.17883658
0000b0 c6 82 8b 3e 12 77 d4 3d 77 9d af 3c 9e b2 19 3d
       0.2724821 0.10374273 0.02143739 0.03752386
0000c0 c6 28 d0 3d 08 03 4b 3e 52 59 1f 3e e8 fc d5 3c
       0.10164027 0.19825375 0.15561417 0.026121572
0000d0 35 8c 22 3e 69 70 c1 bd 8f 6e 90 be 10 b6 ea 3d
       0.15873797 -0.09445269 -0.2820935 0.11460507
0000e0 52 2d 9e 3c b4 bf 82 be 59 a0 b4 3d 94 a3 8e 3d
       0.01930872 -0.25536883 0.088196464 0.06964794
0000f0 e5 e3 96 3d 0a 9e f9 3b 01 21 af 3c e4 6a 26 3d
       0.07367686 0.0076177167 0.021378042 0.040629283
000100 45 cd 9b bc 34 2e 30 3e c0 15 4d 3e ad c8 6c 3d
       -0.019018779 0.17205125 0.20027828 0.057808567
000110 1e 4d ab 3e 48 a5 21 3a 66 aa 42 bc fd d0 1b bb
       0.33457273 0.00061662914 -0.0118814465 -0.002377569
000120 05 0e cf 3e 5a fb d5 3d 05 86 b4 3d 72 94 32 3d
       0.40440384 0.10448332 0.08814625 0.0435986
000130 ac d7 e2 3c 72 e4 0f be 68 25 97 3d d6 8e 8e 3d
       0.027690731 -0.14051989 0.073801816 0.069608375
000140 03 27 a0 3d e6 70 17 3e 0d 52 1d 3d 37 86 ee 3e
       0.07819941 0.14789161 0.038408328 0.46586773
000150 b7 a3 1d 3d da 66 4b 3d 32 eb 25 3e 63 84 dd 3d
       0.03848621 0.049658634 0.16203001 0.108162664
000160 3a 0a 36 be 51 5d 8b 3d fb 5a 8f 3d 2b 6b 55 3d
       -0.17777339 0.06804908 0.06999775 0.052104156
000170 3d fb a3 3e df bd 3f 3c 42 84 b2 3e 59 26 71 bd
       0.32027617 0.011702984 0.3486653 -0.05887446
000180 13 ef d5 3b fa ad 14 3e 80 6e 04 3e 1d 3f e9 3d
       0.006528744 0.14519492 0.12932777 0.11388991
000190 e3 76 cb 3e 2e 8f 05 3e b1 a5 03 3f fc 11 d6 3e
       0.3973914 0.130429 0.514247 0.41810596
0001a0 40 2d 83 bc af 4b 75 3d 4b 06 9b 3e f4 27 f9 3e
       -0.016012788 0.05988663 0.3027824 0.48663294
0001b0 73 4b f2 bc 9b 94 94 3d c8 28 8c 3d fd fb 35 3e
       -0.029576993 0.07254907 0.06843716 0.17771907
0001c0 00 cb c0 be 38 21 96 bc 6d b7 8d 3e 4b 5a 09 3e
       -0.37654877 -0.018326387 0.27679005 0.1341335
0001d0 5f 91 25 3c 58 69 f6 3d 8f a5 f5 3d d1 48 4d 3e
       0.01010546 0.120318115 0.119944684 0.20047309
0001e0 98 23 09 3d 53 32 e5 3d 22 42 9b 3d 77 d9 92 3d
       0.03348121 0.11191239 0.07580973 0.071703844
0001f0 37 09 ac 3d ff 32 d3 3e ae c5 cf 3d eb 54 e4 be
       0.08400195 0.41249844 0.10145126 -0.44596037
000200 37 6f ed 3d de 8b 66 3d 7f 74 9b 3b c8 23 38 bd
       0.11593478 0.05628573 0.004744112 -0.044956
000210 cb 89 e4 be d0 1d 63 3d b3 51 48 3d 5a d1 dc 3d
       -0.44636378 0.055448353 0.04890604 0.10782118
000220 7e 60 10 3e 29 e1 fc 3d d4 35 0d 3e e1 49 4c 3e
       0.14099309 0.123476334 0.13790065 0.19950058
000230 41 e8 83 3d b3 6a a5 3d 77 25 4a 3e de e1 94 3d
       0.06440783 0.08076992 0.19740854 0.07269643
000240 f1 8b eb 3d e5 df 34 be 4f 99 1b 3e dc d1 8c 3d
       0.11501301 -0.17663534 0.15195201 0.06875965
000250 5e 04 cf 3e 70 cb 9c 3d 36 9f c1 3d 2c 4b c2 3b
       0.4043302 0.0765599 0.09454195 0.0059293713
000260 3d d5 4c 3d 34 3c 3c 3d 2b 9b 5b 3e c2 11 fc 3d
       0.050008047 0.04595585 0.2144591 0.123080745
000270 88 ea e8 3d 00 dc c0 3d b4 18 e1 3d ba bc aa 3d
       0.11372858 0.09416962 0.1099104 0.08336778
000280 c2 cb 1c 3e af fe e3 3d da 9e 00 3e 2b c6 e2 3d
       0.15312102 0.111325614 0.12560597 0.11072954
000290 d6 66 b0 3d d7 df 9e 3c 37 34 e9 3c 89 05 e1 3e
       0.086133644 0.019393845 0.02846728 0.43949535
0002a0 21 1c de 3d 92 7f 6f 3d 9d 55 73 3e a3 a3 30 3e
       0.10845209 0.05847127 0.23763128 0.17249922
0002b0 10 f3 29 3e f8 cd 9b 3d 35 77 06 3d 06 42 54 3d
       0.16596627 0.07607645 0.03282853 0.051820777
0002c0 09 64 b9 3d ea 6f e0 3e 87 2a 00 bc ba 0c 0e 3e
       0.09052283 0.43835384 -0.007822639 0.13872042
0002d0 3d a1 b1 3d 3e 08 32 bc 4d 2a 3b 3d ea 9e a9 3d
       0.08673332 -0.010866223 0.045694638 0.082822636
0002e0 c2 bf 54 3e 9f 4d 82 3c c4 78 b1 3c 88 e9 46 3e
       0.20776275 0.015906153 0.02166403 0.19425023
0002f0 ca 05 d9 3d 34 61 07 3e 0d 17 c1 3d d7 8f 29 bc
       0.10596807 0.13220674 0.09428225 -0.0103492355
000300 59 90 02 3e 7f 27 9a 3c c9 66 93 3d a8 b1 0d be
       0.12750377 0.018817661 0.07197339 -0.13837302
000310 da 48 a0 3c 59 42 26 3d 6b 04 1d 3f ed d1 21 3e
       0.019565988 0.040590618 0.61334866 0.15802737
000320 51 97 d1 3c 8f e6 6c 3c ec 0b 59 3e a3 5a 8b 3d
       0.025584849 0.014459266 0.21195954 0.06804397
000330 21 65 da 3d 3e ef 56 3e cc ae cd 3d fe 22 f6 3d
       0.1066382 0.20989701 0.100431055 0.12018393
000340 68 54 e3 3c 56 58 c9 3d 96 ef 28 3e 32 57 7a 3d
       0.027750209 0.09831302 0.16497645 0.061118312
000350 7c a5 b7 bd 45 8e c4 3d c5 1f 82 3d 23 9c eb 3d
       -0.089671105 0.09597448 0.06353716 0.1150439
000360 d9 02 be 3e c7 96 d1 3d 32 6d b7 be f7 0f 5a 3b
       0.37111548 0.102338366 -0.35825497 0.0033273676
000370 06 b7 7e 3e cd d9 75 3d d2 45 ae 3e cd fe 6b bc
       0.24874505 0.060022164 0.34037644 -0.014404011
000380 12 50 3d 3d d1 03 87 3d 03 a2 86 3e 2e 2f ac 3e
       0.04621894 0.06592525 0.2629548 0.33629745
000390 f8 96 88 3e ec 23 b2 3e ed 49 67 3e 47 6f a0 3e
       0.2667768 0.3479303 0.22586794 0.31334898
0003a0 bd b5 9f 3e 5c 64 a5 3e 68 a0 9c 3e c8 6a ae 3e
       0.31193343 0.3230313 0.3059113 0.34065843
0003b0 ed b2 a9 3e ec f8 83 3e fd 87 90 3e 18 a4 9b 3e
       0.33144322 0.2577585 0.2822875 0.3039863
0003c0 09 98 90 3e 64 44 af 3e 53 63 a2 3e b6 5a 88 3e
       0.28240994 0.34231865 0.31716403 0.26631707
0003d0 0b 36 a4 3e aa f9 81 3e 00 aa 82 3e 39 51 a0 3e
       0.32072482 0.2538579 0.25520325 0.31311968
0003e0 66 35 b6 3e b9 b8 93 3e 61 3a 73 3e 3b 5a 97 3e
       0.35587615 0.2885187 0.23752739 0.29561028
0003f0 c6 a7 19 bd f9 5a 9d 3d 6e bd bd 3d 38 89 09 3f
       -0.037513517 0.07683367 0.092646465 0.53725004

l1.bias f4 [8]
000000 65 7a e4 3e fc 7a 91 3e d9 ff 93 3f 12 89 95 3e
       0.4462463 0.28414142 1.1562454 0.2920614
000010 f5 34 22 3f 02 3b 05 3f 2e 31 85 3e de 1b 65 3e
       0.63362056 0.52043164 0.26014084 0.22373912

l2.weight f4 [8, 8]
000000 7c e8 89 3f 38 d1 65 3f cb 0d c5 3f 52 01 48 3f
       1.0774074 0.8977237 1.5394834 0.78127015
000010 8f b1 e7 3f 04 74 35 be f8 2b 44 3f 70 76 16 bf
       1.8101062 -0.17720038 0.7662959 -0.5877447
000020 ca f6 3d 3e 4b cf 6a 3e 79 50 87 be 85 a5 b6 be
       0.18551174 0.22930638 -0.26428583 -0.35673156
000030 8a 2d 99 bd 80 03 b1 3d cf 8a 24 bd 2b 8e 29 be
       -0.07479389 0.08643246 -0.04017144 -0.16558139
000040 e4 67 56 3f ab 0b fc 3d ef 0d a6 3d c3 aa 11 bf
       0.83752275 0.12306913 0.08108126 -0.56901187
000050 13 88 84 bf e1 aa d2 3f 16 f1 91 be 16 b5 db 3f
       -1.0354027 1.6458398 -0.28504246 1.7164638
000060 e9 01 5d 3f b0 7d d9 3e 26 18 83 3f a2 fa c6 3e
       0.8633104 0.42478704 1.0241745 0.38863093
000070 d2 6d c3 3f 40 91 63 be 6e cb 45 3f 91 e2 74 bf
       1.526789 -0.22223377 0.77263534 -0.9565821
000080 65 15 11 bf 1f 67 21 bf a7 ce a5 3f bc 8d d3 bf
       -0.5667327 -0.63047975 1.295369 -1.6527629
000090 a3 7d 8c 3e b3 28 47 3f 08 cd a6 bf fc 23 56 bd
       0.27439603 0.7779648 -1.303132 -0.05228041
0000a0 cb 15 a0 3f eb 2f 54 be 0c 74 b4 bd f8 c5 6b be
       1.2506651 -0.20721404 -0.08811197 -0.23024738
0000b0 96 1a a2 bf b2 50 c8 3f 01 5a ec bd fd 2c 9a 3f
       -1.2664363 1.5649626 -0.115406044 1.2044979
0000c0 57 30 36 bf c2 42 90 bf 3d e6 c0 3f ed a9 db bf
       -0.7116751 -1.1270373 1.5070263 -1.7161232
0000d0 6f 27 16 3f 00 fc 81 3f 47 d6 c2 bf 80 73 44 bd
       0.5865392 1.0155029 -1.5221642 -0.047961712
0000e0 37 b0 54 3f 44 97 42 3f 84 d8 43 3f 95 41 7f 3f
       0.8308138 0.76012063 0.7650225 0.99709445
0000f0 32 09 91 3f 2d a7 30 be 29 9e 3d 3f 87 74 97 be
       1.1330931 -0.17251272 0.7406946 -0.2958109

l2.bias f4 [8]
000000 3c 78 08 3f 24 fd 75 be 49 cc fa 3e 00 cb 31 3e
       0.53308463 -0.24022347 0.48983982 0.17362595
000010 5f ee 36 3f 50 36 08 3f eb 3e 25 3f 53 55 89 3e
       0.71457475 0.53207874 0.6454913 0.2682291

l3.weight f4 [8, 8]
000000 e7 34 93 be 5a d9 8b 3d c9 0f 24 bf db d1 9e be
       -0.287513 0.06828566 -0.64086586 -0.31019482
000010 6f 6d 88 3f 7d 9c bb be b0 e2 8d 3f 15 aa be be
       1.0658396 -0.3664283 1.1084805 -0.37239137
000020 b2 03 45 bf 1d bf 5c 3e 29 57 5f 3f 2b 79 85 bf
       -0.76958764 0.21557279 0.8724237 -1.0427603
000030 b4 44 53 3f 5e 08 1f 3f f7 cb 90 3f fb 82 43 bf
       0.8252671 0.6212214 1.1312245 -0.76371735
000040 2b 53 ab bf cf 57 09 be 50 82 db 3e c1 e8 93 bf
       -1.3384756 -0.13412403 0.42872858 -1.1555406
000050 b3 f7 52 bf 00 ca 90 3f 38 dc 68 bf ca 87 8f bf
       -0.8240921 1.1311646 -0.9096103 -1.1213315
000060 24 4b 0c bf 4e de 25 3e 3d 4d 96 3e 3e 23 01 bf
       -0.54802155 0.16198084 0.29355803 -0.504444
000070 af 56 7b 3f fd a4 b9 3e 99 bc 8b 3f 3e 5b 51 bf
       0.98179144 0.3625869 1.091693 -0.8177985
000080 85 d3 25 3f bb d5 3e be a8 ad b5 bf d9 23 60 3f
       0.6477588 -0.18636219 -1.4193621 0.875547
000090 0a 3c d0 bf cd ff b3 bf 2f 43 0f c0 8e 76 38 3f
       -1.6268322 -1.4062439 -2.2384756 0.720559
0000a0 2d 9f 1c bf 2f ad 38 be e6 d7 c9 3d 81 0d 57 be
       -0.6118038 -0.18034814 0.098556325 -0.21001245
0000b0 b8 c5 db bf ad 12 2c 3e ba 12 d3 bf 7a 10 f5 3d
       -1.7169714 0.16803999 -1.649009 0.11966033
0000c0 ff ad ac 3d f9 71 06 be 45 fb ba 3f cd a5 4b bf
       0.084316246 -0.13129415 1.4607931 -0.79549867
0000d0 ee 59 3e 3e e9 b8 81 3f 06 30 07 bf 5d d6 b3 bd
       0.18588993 1.0134555 -0.5280765 -0.08781121
0000e0 fc 23 40 bf 46 07 f6 3d d4 40 88 3e 40 8b 9b bf
       -0.7505491 0.12013106 0.2661196 -1.2151871
0000f0 95 5d 9e 3f 7f 09 a9 3d 5f 4e d5 3f 8d 79 af bf
       1.2372309 0.08253764 1.6664542 -1.3708969

l3.bias f4 [8]
000000 64 d8 fd 3d 20 58 ab be 03 0b 2d bf e8 38 68 be
       0.12394789 -0.33465672 -0.6759493 -0.22677958
000010 ce c7 8f 3e 90 24 cb be b4 7c 25 be 44 59 82 be
       0.28082126 -0.39676332 -0.16160852 -0.2545873

l4.weight f4 [7, 8]
000000 b9 76 bf be 35 31 42 3e 53 c8 67 3f 8e ed e1 3e
       -0.37395266 0.18964083 0.90540045 0.44126552
000010 3f ea d4 be cd f0 67 3f d0 40 4c 3f de cb 8d 3e
       -0.41584966 0.9060181 0.79786396 0.276946
000020 91 7a 3e 3f ed 10 9c 3d 7c 51 22 bf 72 14 99 3e
       0.7440577 0.07620416 -0.63405585 0.2989841
000030 c4 27 e8 bd 14 5f fe be 3a 1c 4e bf 8b 7f 1c 3f
       -0.1133571 -0.49681914 -0.8051182 0.61132115
000040 f7 87 d0 3d ae a1 26 3f f7 e5 85 3f e4 8f c7 3e
       0.10182183 0.65090454 1.0460805 0.38976967
000050 21 21 01 bf b8 da 13 3e c7 64 ae 3e 3e 61 78 3f
       -0.50441176 0.14438903 0.34061262 0.9702338
000060 7a 32 8c 3e b0 d3 d3 3e 54 f3 70 be 9a b1 8b 3e
       0.2738226 0.41372442 -0.23530322 0.27283937
000070 68 d4 ec be 5d 8f 96 be 98 e9 cc 3e 0f 5e 5d 3f
       -0.46255803 -0.29406253 0.40021968 0.8647165
000080 53 40 38 be 2f f4 03 bf 99 ec c7 be 31 4c 93 be
       -0.17993288 -0.5154447 -0.39047697 -0.28769067
000090 d3 64 5b 3e d6 e9 0e bf 20 f1 03 3e 9b 4f ad be
       0.2142518 -0.55825555 0.1288495 -0.33849797
0000a0 8f b0 dd be d6 37 41 bf 74 b9 ea bd 85 7a 5c bf
       -0.43298766 -0.75475824 -0.114611536 -0.8612445
0000b0 70 07 8a 3f 02 9a 4c 3f fa e1 45 bf 6e 0d 1d bf
       1.078352 0.799225 -0.7729794 -0.6134862
0000c0 8e af 30 bf 77 2b c5 3d 45 7b 8a bd 08 8a ae be
       -0.69017875 0.09627431 -0.06761793 -0.34089684
0000d0 12 9f 5e be ca 71 a2 3c 6b 95 85 3f fe 3e bc be
       -0.21740368 0.01982965 1.0436224 -0.3676681

l4.bias f4 [7]
000000 57 69 bb bd 05 61 f8 bd f2 13 9c 3d 4e 64 a3 be
       -0.09150951 -0.1212788 0.07620992 -0.31912464
000010 e5 12 75 be 1a d9 95 3d 40 38 bd bc
       -0.23932989 0.073167995 -0.023098111
