DL_Model/Pytorch_Model/data.pth (torch, 30492 bytes, 8 tensors)

l1.weight f4 [8, 557]
0	0xbbf0598f	-0.007334895
1	0x3d5d6c0a	0.054058112
2	0xbdb89b0f	-0.0901395
3	0xbe02cf71	-0.12774445
4	0x3f1c9547	0.6116528
5	0x3d3ba56d	0.04581206
6	0xbd2aaabd	-0.041666735
7	0x3e701246	0.23444471
8	0x3ea75141	0.3267918
9	0x3c4f3d75	0.01264893
10	0x3e8f6e7d	0.28013983
11	0x3e9c6698	0.30547023
12	0x3eb68cea	0.35654384
13	0x3eaf1cab	0.3420156
14	0x3ea6a54f	0.32547995
15	0x3e546878	0.20742977
16	0x3e860704	0.26177227
17	0x3e910827	0.28326532
18	0x3e4d8811	0.20071436
19	0x3e9b897b	0.30378327
20	0x3e98ac59	0.2981899
21	0x3ea2ecd0	0.318213
22	0x3ea28f3d	0.31749907
23	0x3e79bb71	0.2438791
24	0x3e5e794b	0.21725957
25	0x3e8f9ce5	0.2804939
26	0x3e9515c5	0.2911817
27	0x3ecfa3e1	0.40554717
28	0x3eaa3585	0.33243957
29	0x3ea9e417	0.3318183
30	0x3e35f4f6	0.17769226
31	0xbd0342e5	-0.032046217
32	0x3ef029d5	0.46906915
33	0x3f4bb32a	0.7957026
34	0x3e8821c3	0.26588258
35	0xbd743867	-0.059624102
36	0x3df3ada1	0.118983515
37	0x3f729b6c	0.94768405
38	0x3e707a00	0.2348404
39	0x3ed42775	0.41436353
40	0x3f91ccc7	1.1390618
41	0x3d3e9289	0.046526466
42	0x3d75625a	0.05990825
43	0xbe77333e	-0.24140641
44	0xbcc524c6	-0.024065387
45	0xbe98d842	-0.29852492
46	0xbdf0d850	-0.11760008
47	0xbe8b21f2	-0.27174336
48	0x3c87b57d	0.016566033
49	0xbe57eef7	-0.21087252
50	0x3e453d80	0.19261742
51	0xbd7fd9c8	-0.06246355
52	0x3ef2b9af	0.4740729
53	0x3e280928	0.16409743
54	0x3efe89f8	0.49714637
55	0xbdbaf919	-0.09129543
56	0x3d9709e6	0.07374935
57	0x3ec819fe	0.3908233
58	0x3dbf7128	0.09347755
59	0x3d3f3d1a	0.04668913
60	0x3d4c03ac	0.04980819
61	0x3e0ee94e	0.13956186
62	0x3ef3f324	0.4764644
63	0xbd8e6c34	-0.06954232
64	0xbd168738	-0.03675005
65	0x3e4d832f	0.20069574
66	0xbe1f13e1	-0.15534927
67	0x3ec70481	0.38870624
68	0x3e9c221d	0.30494776
69	0x3e370fb0	0.17877078
70	0xbe584740	-0.2112093
71	0xbe5df7b1	-0.21676518
72	0x3d90aaae	0.070638046
73	0xbed0d280	-0.407856
74	0x3eafc6b3	0.34331283
75	0x3dc64538	0.09681171
76	0x3e8eb5b7	0.27873012
77	0x3df79d38	0.12090534
78	0xbd4ef585	-0.050527114
79	0xbeec7299	-0.4618118
80	0x3e872593	0.26395854
81	0x3ce3496d	0.027744973
82	0x3fa64643	1.2990192
83	0x3e97c932	0.29645687
84	0x3d152cb8	0.0364196
85	0x3d9c36ed	0.07627664
86	0x3ec1cfd6	0.3785388
87	0xba53b3fc	-0.0008075831
88	0xbd0ab7d0	-0.033866704
89	0xbe876ab1	-0.26448587
90	0x3e8d3edb	0.27587017
91	0x3d299347	0.04140022
92	0x3d925859	0.07145757
93	0x3ea7e178	0.32789207
94	0x3d1fd075	0.03901716
95	0xbbeeab62	-0.007283614
96	0x3c89b718	0.016810939
97	0x3dcc5354	0.09976831
98	0x3f068cae	0.5255841
99	0x3ef70f45	0.48253837
100	0x3f15f831	0.58581835
101	0x3d78ef8b	0.06077532
102	0x3d6b408a	0.057434596
103	0x3f2b61bc	0.66946006
104	0xbe89c208	-0.26905847
105	0xbeabb892	-0.33539253
106	0xbec9947f	-0.39371106
107	0x3e429d83	0.19005398
108	0x3f50a625	0.81503516
109	0x3f3aca52	0.72964966
110	0x3f4bd597	0.7962279
111	0x3dd93324	0.106054574
112	0x3ef21130	0.47278738
113	0x3ee13a99	0.4399002
114	0x3f009711	0.5023051
115	0x3e8889f0	0.26667738
116	0x3d2fbc44	0.042904153
117	0x3e2a85b5	0.16652568
118	0x3d548a14	0.051889494
119	0x3ea70e98	0.32628322
120	0x3cd66246	0.026169907
121	0xbd5372a8	-0.051623017
122	0xbeadb214	-0.33924925
123	0x3da5cdf8	0.08095926
124	0xbe918683	-0.28422937
125	0x3ddbeaf0	0.1073817
126	0x3dbce18c	0.09222707
127	0x3ea3f0e3	0.3201972
128	0x3d116edd	0.035506118
129	0x3e60710a	0.21918121
130	0xbdb9f124	-0.09079197
131	0xbde646d4	-0.11243978
132	0xbc64759b	-0.013944055
133	0x3e157278	0.14594448
134	0xbe2fb6d5	-0.17159589
135	0xbe2a6b89	-0.16642584
136	0x3e48a3f3	0.19593792
137	0x3e183ff9	0.14868154
138	0x3f473d09	0.7782751
139	0x3e415aa7	0.18882237
140	0xbe217ae3	-0.15769534
141	0x3f0b5974	0.5443337
142	0x3d9741f1	0.07385624
143	0x3e210421	0.15724231
144	0xbe5866e9	-0.21133007
145	0x3d7c65ea	0.06162063
146	0x3ecf1129	0.4044278
147	0x3e6b4bbf	0.22978114
148	0xbc88fbbf	-0.016721604
149	0x3e48544b	0.19563405
150	0x3e941c93	0.2892805
151	0x3f05e381	0.5230027
152	0x3da2b095	0.079438366
153	0xbc93d2dc	-0.018044882
154	0x3e1bf56a	0.15230337
155	0x3f130d19	0.5744186
156	0x3eb1bfa5	0.34716526
157	0x3eb2117f	0.34778973
158	0xbdb0ce27	-0.086330704
159	0x3fadce39	1.3578559
160	0x3d1bd0a7	0.038040783
161	0x3ce46b1e	0.027883109
162	0x3e59379d	0.21212621
163	0xbe8454d5	-0.25845972
164	0x3e8c2fc4	0.27380192
165	0x3d76375c	0.06011139
166	0x3e6ab3af	0.22920106
167	0x3f2ad77a	0.6673504
168	0x3f1183df	0.56841844
169	0x3e9b9837	0.30389568
170	0xbccaa83a	-0.02473842
171	0x3e148ccc	0.14506835
172	0xbddd9236	-0.10818903
173	0x3d86edd8	0.06588334
174	0x3f33cc55	0.7023366
175	0x3e2da9c0	0.16959286
176	0x3f06fe45	0.52731735
177	0x3f0d4375	0.55181056
178	0x3f34ba1f	0.705965
179	0x3e06138f	0.13093399
180	0x3f2b9997	0.67031235
181	0x3d930e1e	0.07180427
182	0x3c07acba	0.008280927
183	0x3d87ad55	0.06624857
184	0x3cc369ef	0.023854224
185	0x3eb5810a	0.35450011
186	0x3eff1640	0.49821663
187	0x3dd179ae	0.10228287
188	0x3d60f82f	0.054924186
189	0x3e393936	0.1808823
190	0xbde1ac42	-0.11019184
191	0x3f5cb232	0.86209404
192	0x3dd7e3da	0.10541506
193	0x3ecce95a	0.40021783
194	0xbd5026ab	-0.050818127
195	0x3e5a10cc	0.2129547
196	0xbdf540c0	-0.11975241
197	0x3ed8067f	0.42192456
198	0x3ecdd8f4	0.40204585
199	0xbe164474	-0.1467455
200	0x3dc179de	0.094470724
201	0x3e24669b	0.16054766
202	0xbde5172a	-0.11186059
203	0x3da2b6b7	0.07945006
204	0x3e4f6acf	0.20255588
205	0xbe2cf53f	-0.16890429
206	0xbe1fa038	-0.15588462
207	0x3f60fa5e	0.8788203
208	0x3d5de43d	0.054172743
209	0x3ef7e32c	0.48415506
210	0x3f11ecab	0.5700175
211	0x3e179dd6	0.14806303
212	0x3dff81cf	0.12475931
213	0x3e97d2c5	0.29652992
214	0x3f03c662	0.51474583
215	0x3e632f2e	0.22185966
216	0x3ed65917	0.41864845
217	0xbe5024f5	-0.20326598
218	0x3cd988c2	0.026554469
219	0x3e9998ac	0.29999292
220	0x3e48ca67	0.1960846
221	0x3d718858	0.05896792
222	0x3d7e906c	0.06214945
223	0x3df1ad86	0.11800675
224	0x3d6bc2c0	0.057558775
225	0xbefec6b1	-0.49760965
226	0x3eb62a10	0.35578966
227	0x3e12e810	0.14346337
228	0xbd9201e6	-0.07129268
229	0x3d5a806b	0.053345125
230	0x3ea71a74	0.3263737
231	0x3f5ac601	0.8545838
232	0xbc6ef419	-0.014584565
233	0x3ddda48f	0.10822403
234	0x3d5fc140	0.054627657
235	0x3ed13522	0.4086085
236	0x3ea97c95	0.3310286
237	0x3e86ed00	0.26352692
238	0x3d51d1e9	0.051225577
239	0x3f18c15f	0.5967006
240	0x3e500aab	0.2031657
241	0x3e23058d	0.15920086
242	0x3f74f6a8	0.9568887
243	0x3e0663c4	0.13123995
244	0x3f82becc	1.0214477
245	0x3dc036f3	0.09385481
246	0x3e0a15db	0.134849
247	0x3f76cf67	0.9641022
248	0x3e02d548	0.12776673
249	0x3de981d1	0.11401714
250	0xbc1023f6	-0.008797636
251	0x3dc5a944	0.096514255
252	0x3dc37644	0.09544042
253	0x3e4ef159	0.20209254
254	0xbd891a48	-0.06694466
255	0x3da01ea3	0.078183435

l1.bias f4 [8]
0	0x3ecf8778	0.40533042
1	0x3f38f470	0.7224798
2	0x3efaa41b	0.48953328
3	0x3f60caca	0.8780943
4	0x3f5e4fa5	0.8684028
5	0x3d818e60	0.06325984
6	0x3e9e8114	0.30957854
7	0x3f5cddb9	0.8627582

l2.weight f4 [8, 8]
0	0x3faebb2b	1.3650869
1	0xbef0aa71	-0.47005036
2	0x3fbea3f3	1.4893783
3	0xbe5507de	-0.20803782
4	0x3fff6714	1.9953332
5	0x3fa89c45	1.317269
6	0xbf5a10ce	-0.8518189
7	0xbef884bf	-0.48538777
8	0xbe7b7705	-0.24557121
9	0x40047492	2.069615
10	0xbea61665	-0.3243896
11	0x3fef7c88	1.8709879
12	0x3f8d9ada	1.1062882
13	0xbfb966fa	-1.4484551
14	0x3e63cc95	0.2224601
15	0x3f342be8	0.70379496
16	0x3fc8d5b4	1.5690217
17	0xbf2377da	-0.63854754
18	0xbe20108d	-0.15631314
19	0xbed85f99	-0.42260435
20	0x3f3fe941	0.7496529
21	0x3e55e17b	0.20886795
22	0x3f91d924	1.1394391
23	0x3f54ff85	0.8320239
24	0x3fa3a7f3	1.2785629
25	0x3f3b2d26	0.73115766
26	0x3d92bac1	0.07164527
27	0xbe71afc9	-0.23602213
28	0xbf3c2f49	-0.7350965
29	0x3fa4530d	1.2837845
30	0x3ff00723	1.8752178
31	0x3fa32120	1.2744484
32	0x3f000597	0.5000853
33	0x3fe0075e	1.7502248
34	0xbec31fc2	-0.38110167
35	0xbf19b7ff	-0.6004638
36	0x3fe06716	1.7531459
37	0xbf9edc04	-1.2410893
38	0xbd49b774	-0.04924722
39	0x3ec3f33f	0.3827152
40	0x3f874307	1.056733
41	0x3fdcc4e7	1.724759
42	0xbe46f465	-0.19429167
43	0x3f114b81	0.56755835
44	0xbf26e8e7	-0.6519913
45	0x3eaf1fb3	0.34203872
46	0x3fc9aa6e	1.5755136
47	0x3fa7b584	1.3102269
48	0xbefd96e9	-0.49529198
49	0xbeacc9a8	-0.33747602
50	0x3fb7c3db	1.4356645
51	0x3fd8537f	1.6900481
52	0xbf7a61ac	-0.97805285
53	0x3f2e9203	0.68191546
54	0xbecfceff	-0.40587613
55	0x3f803500	1.0016174
56	0xbea9ec9b	-0.33188328
57	0xbf3ee57e	-0.7456893
58	0x3fd2d2ff	1.6470641
59	0x3fa12614	1.2589746
60	0xbe799940	-0.24374866
61	0x3f85bc72	1.0448134
62	0xbedc75fb	-0.43058762
63	0x3f434718	0.76280355

l2.bias f4 [8]
0	0x3f83a195	1.0283686
1	0x3f70f5a9	0.9412485
2	0x3e2f1366	0.17097244
3	0x3ef490fb	0.4776686
4	0x3f65de8f	0.8979272
5	0xbce12634	-0.027484037
6	0x3ef953a7	0.48696634
7	0x3f03f49a	0.5154511

l3.weight f4 [8, 8]
0	0xbf838361	-1.0274469
1	0xbfd12a0b	-1.6340955
2	0x3f967412	1.1754172
3	0x3fa0863b	1.2540964
4	0xbfd33dc6	-1.6503227
5	0x3f995f46	1.19822
6	0x3f78492f	0.9698667
7	0x3f8a5953	1.080851
8	0xbd398ecb	-0.045302194
9	0x4019119d	2.3917
10	0xbf3bf33a	-0.7341801
11	0xbea2f970	-0.3183093
12	0x3e9090d1	0.28235486
13	0x3f07262d	0.52792627
14	0x4004e879	2.076689
15	0x3ff28843	1.8947834
16	0x3fa36b36	1.2767093
17	0xbf6a5ae2	-0.91544926
18	0x3fbaf92d	1.4607292
19	0x3f90dc5f	1.1317252
20	0x3f8b44f0	1.0880413
21	0x3f2e0f1a	0.67991793
22	0x3d456ece	0.048201375
23	0x3daca1ba	0.084292844
24	0xbeb015b0	-0.34391546
25	0x3feb1cb5	1.8368136
26	0x3f40e091	0.7534266
27	0x3e8691eb	0.26283202
28	0x3fe949d9	1.8225662
29	0x3f53d8da	0.82752764
30	0xbf5725c7	-0.8404202
31	0xbf797e84	-0.9745867
32	0x3feb1969	1.836713
33	0x3dc946be	0.09827946
34	0x3eb4d56d	0.3531908
35	0xbf04ab07	-0.51823467
36	0x3f014b0e	0.5050515
37	0xbf657daa	-0.89644873
38	0x3f618283	0.8808977
39	0x3f9f5b4c	1.2449737
40	0xbdddedc5	-0.108363666
41	0xbf9dab15	-1.2317835
42	0x3ed77977	0.42084858
43	0xbefa45c8	-0.48881364
44	0xbeb44ee3	-0.35216436
45	0xbe298f76	-0.16558632
46	0xbfa94ee7	-1.3227204
47	0xbf698780	-0.9122238
48	0x3f869585	1.051438
49	0xbdf810c3	-0.12112572
50	0xbf2778ca	-0.65418684
51	0xbf55efd8	-0.835691
52	0x3f5f5166	0.8723358
53	0xbf2ea18f	-0.6821527
54	0xbfb0c28f	-1.3809375
55	0xbf2c4756	-0.6729635
56	0x40076585	2.1155713
57	0xbef95e75	-0.48704877
58	0x3f8cdb4b	1.1004423
59	0xbd0aa931	-0.03385276
60	0xba199793	-0.0005859073
61	0xbf19f787	-0.6014332
62	0xbf11deea	-0.56980765
63	0x3f027895	0.50965244

l3.bias f4 [8]
0	0xbf035722	-0.5130483
1	0x3f2ef98c	0.6834953
2	0x3ed09045	0.4073507
3	0xbe104a20	-0.14090776
4	0xbc91c74b	-0.017795226
5	0xbee3a5cd	-0.44462433
6	0xbe8ddbbf	-0.27706715
7	0x3f29bc57	0.6630301

l4.weight f4 [18, 8]
0	0xbf61f8c1	-0.88270193
1	0xbf837c88	-1.0272379
2	0xbea8be25	-0.3295757
3	0x3f109731	0.564807
4	0xbeb89e76	-0.36058396
5	0x3e43b37a	0.19111434
6	0x3f580ebd	0.8439749
7	0x3dec6e0e	0.11544429
8	0xbdd908d1	-0.10597385
9	0xbf6be33a	-0.92143595
10	0x3b46f083	0.0030355758
11	0x3e82c3d7	0.2554004
12	0xbf5e97d5	-0.8695043
13	0x3f3d9c65	0.74066764
14	0x3ee72c39	0.45150927
15	0xbf4b1da2	-0.7934209
16	0x3d876a39	0.06612057
17	0xbedb9de1	-0.4289389
18	0xbf501990	-0.81289005
19	0x3ccd62f5	0.0250716
20	0x3dcc4fc9	0.09976155
21	0x3ec34acd	0.38143006
22	0x3dd32838	0.103104055
23	0xbe8fad92	-0.2806211
24	0x3f0f19cc	0.5589874
25	0x3f01e74d	0.5074356
26	0xbf499c34	-0.7875397
27	0xbfe0a7a9	-1.7551166
28	0x3f026716	0.50938547
29	0x3e2c6f10	0.16839242
30	0x3da45dc8	0.080257
31	0xbf27579d	-0.6536806
32	0xbe954d27	-0.29160425
33	0xbe8d9a4e	-0.27656788
34	0xbfa4b45b	-1.286754
35	0x3ebceede	0.3690099
36	0xbf84ecba	-1.0384743
37	0x3f2671af	0.6501722
38	0xbe15cf6e	-0.1462991
39	0xbf164823	-0.5870382
40	0x3eb17946	0.34662837
41	0xbfd6e4ac	-1.6788535
42	0x3ee8a361	0.45437148
43	0xbd6d8e49	-0.05799702
44	0xbfb4cd4a	-1.4125149
45	0x3fecbce0	1.849514
46	0xbdbe8361	-0.09302402
47	0x3f0dacdc	0.5534189
48	0x3f1a98d7	0.60389465
49	0xbf389f53	-0.7211811
50	0xbf231c38	-0.63714933
51	0xbeb928bf	-0.361639
52	0xbf27e2fe	-0.6558074
53	0x3e963126	0.29334372
54	0xbd6a85a7	-0.057256367
55	0xbf4263b7	-0.759334
56	0x3ede4899	0.43414763
57	0x3ead94a4	0.33902466
58	0xbf9792b4	-1.1841645
59	0xbf9bbe7e	-1.2167509
60	0xbf6f0d79	-0.9337993
61	0xbdaeed14	-0.08541313
62	0xbd83af5f	-0.06429934
63	0xbf9965bd	-1.1984173
64	0xbfa1c9f7	-1.263976
65	0xbe8d792a	-0.27631503
66	0xbf554f0f	-0.8332376
67	0x3eabe7cf	0.33575293
68	0xbf4f1f70	-0.80907345
69	0x3dacfa19	0.0844614
70	0x3f708c3b	0.93963975
71	0xbf9daf3c	-1.2319102
72	0xbf01775b	-0.50572747
73	0xbfb796c7	-1.4342889
74	0x3f67b96a	0.90517294
75	0xbd752b88	-0.059855968
76	0x3de2d5d7	0.11075943
77	0x3f88a9ff	1.0676879
78	0x3f66bae7	0.9012894
79	0x3f2bbddb	0.6708657
80	0x3e8fd8d2	0.28095108
81	0xbf714ada	-0.9425484
82	0xbe4ed1c3	-0.20197205
83	0xbe1d6264	-0.15369564
84	0x3c610717	0.0137346005
85	0x3f07fb1d	0.53117543
86	0x3d947628	0.07249099
87	0x3effacc9	0.49936512
88	0x3f11c81a	0.56945956
89	0xbef786c7	-0.48345014
90	0xbea5d4d4	-0.32388937
91	0xbfdb740e	-1.7144792
92	0x3d23da16	0.040002905
93	0xbe8b1057	-0.27160904
94	0xbecdb801	-0.40179446
95	0x3e088404	0.1333161
96	0xbd90d822	-0.07072474
97	0xbf76f8e6	-0.9647354
98	0x3fc322c5	1.5244986
99	0xc0096e0b	-2.1473415
100	0x3f684bc9	0.9074064
101	0x3f079f26	0.52977216
102	0x3fde8dd0	1.7387028
103	0x3fcc7a85	1.597489
104	0xbe4419bc	-0.19150442
105	0xbc1154fb	-0.008870359
106	0xbd85c241	-0.065311916
107	0xbfa04a3d	-1.2522656
108	0x3ee6d62f	0.45085284
109	0x3ea666de	0.32500356
110	0x3e865a66	0.26240844
111	0x3ef524b8	0.47879577
112	0xc01fd4ff	-2.4973752
113	0x3f4de9fc	0.80435157
114	0xbfa0a72a	-1.2551014
115	0xc00de960	-2.217369
116	0x3f8a77f7	1.081786
117	0xbf0fecb2	-0.56220543
118	0x3fa2cc90	1.2718678
119	0x3f4bf9e7	0.79678196
120	0xbfcdcb19	-1.6077605
121	0xbf4cae28	-0.7995324
122	0x3d1b7479	0.037952874
123	0xbc29f091	-0.010372297
124	0x3ef01eba	0.46898443
125	0x3ed46b29	0.41488007
126	0x3fa87275	1.315993
127	0x3f527ec5	0.82224685
128	0xbfd0221f	-1.6260413
129	0x3f2ed44b	0.68292683
130	0xbfd87a12	-1.6912253
131	0xbf33a2b4	-0.7017014
132	0xbe0517bc	-0.12997335
133	0xbe32647e	-0.17421147
134	0x3e327e3d	0.17430969
135	0xbf839af8	-1.0281668
136	0xc008c13a	-2.1367936
137	0x3d97ad81	0.0740614
138	0xbf951e38	-1.1649847
139	0x3ece96e0	0.40349483
140	0xbe4d4464	-0.2004562
141	0x3e9dffc2	0.3085919
142	0x3fe1aaad	1.7630211
143	0xbdecc8b2	-0.11561717

l4.bias f4 [18]
0	0x3ea8d3e6	0.32974166
1	0xbde51382	-0.111853614
2	0xbf00b0a8	-0.50269556
3	0xbf8891b1	-1.0669461
4	0xbdebfcc6	-0.11522822
5	0x3dcb9671	0.09940804
6	0x3dfec733	0.12440338
7	0xbe8fb5c0	-0.28068352
8	0xbc2520f6	-0.010078659
9	0xbe5be6d3	-0.21474771
10	0xbe077687	-0.13228808
11	0xbd4ba9bf	-0.04972243
12	0x3f0153fd	0.5051878
13	0xbef710b8	-0.48254943
14	0x3f30229d	0.68802816
15	0x3db1d8a6	0.086839005
16	0xbcb06677	-0.021533234
17	0x3e2e8a7a	0.17045012
