DL_Model/Pytorch_Model/data_info.pth (torch, 17944 bytes, 8 tensors)

l1.weight f4 [8, 276]
0	0x3db63d45	0.08898405
1	0x3d821020	0.06350732
2	0x3f922334	1.1416993
3	0x3ccafaf5	0.024777869
4	0xc036f847	-2.8589036
5	0xc0145c6c	-2.318141
6	0xc077794a	-3.866778
7	0x3f12d883	0.5736162
8	0x3fee59fc	1.8621211
9	0x3ec3e04d	0.38257065
10	0xc06e6f24	-3.7255335
11	0x405cba71	3.4488795
12	0xbffa67a8	-1.9562883
13	0x3fea50c7	1.8305901
14	0xc0211efd	-2.5175164
15	0xbf3dd1c5	-0.7414821
16	0x3f179d4c	0.5922439
17	0xc05f3736	-3.4877448
18	0xc08035e0	-4.0065765
19	0x3feca423	1.848759
20	0xbf068770	-0.5255041
21	0x40676c07	3.6159685
22	0x40936917	4.6065784
23	0xc05a3d56	-3.4099936
24	0xbfb612a6	-1.4224441
25	0x4088f457	4.2798266
26	0x405cf1b2	3.452252
27	0x3fcb6d86	1.5892799
28	0x3ee0a6c0	0.4387722
29	0xbf2dc99f	-0.67885774
30	0x3d9a6427	0.07538634
31	0xbf14e16c	-0.58156466
32	0x3f58b8da	0.8465706
33	0x3f9b5af6	1.2137134
34	0xbf8285f6	-1.0197132
35	0x3edbcc4c	0.42929304
36	0xbfe88c2d	-1.8167778
37	0x3fde2f41	1.7358171
38	0xbe3857ba	-0.18002215
39	0x3fae1fdb	1.3603472
40	0x3e781855	0.24228032
41	0x3e0bb263	0.13642268
42	0x3ea71036	0.32629555
43	0xbca8434c	-0.020539902
44	0x3ed6c9e7	0.41950914
45	0x3f9e3e56	1.2362773
46	0x3cd570fc	0.026054852
47	0x3d184fa8	0.03718534
48	0xbd1544e4	-0.036442652
49	0x3f14d131	0.581317
50	0x3f0b3537	0.54378074
51	0xbe19e286	-0.15027818
52	0x3e1b6d2b	0.15178363
53	0x3d1e5c01	0.03866196
54	0x3e005861	0.12533714
55	0x3ea0e170	0.31421995
56	0x3ed2c56d	0.4116625
57	0xbe8ca64f	-0.27470633
58	0xbd3fe807	-0.046852138
59	0x3fa2ed4f	1.2728671
60	0xbcc746f4	-0.024325825
61	0xbf15d69f	-0.5853061
62	0x3f6a15f4	0.9143975
63	0x3f3cab83	0.73699206
64	0x3f830cff	1.0238341
65	0xbe4d5293	-0.20051031
66	0x3f8fe069	1.124036
67	0x3fab6d72	1.3392775
68	0x3f0d76f7	0.5525965
69	0x3f9f63ee	1.2452371
70	0x3f45e21f	0.7729816
71	0x3e051cbb	0.12999241
72	0x3c55e14a	0.013054201
73	0xbdcc6cfe	-0.09981726
74	0xbe549e5f	-0.20763539
75	0xbe199960	-0.14999914
76	0xbdce37cb	-0.100692354
77	0x3a6b090d	0.0008965887
78	0xbe181c45	-0.14854534
79	0x3d1f706e	0.03892558
80	0x3dcef08f	0.10104477
81	0xbd3f1878	-0.046654195
82	0xbd92ec38	-0.071739614
83	0xbd6dfbcd	-0.058101464
84	0x3cb17d40	0.02166617
85	0x3fb1b70b	1.3883985
86	0xbd857a6a	-0.06517489
87	0xbeaaf9d1	-0.3339372
88	0xbd6edda0	-0.058316827
89	0xbe4602d3	-0.19337015
90	0xbde8feec	-0.113767475
91	0x3dcbb567	0.09946709
92	0x3fbfa879	1.4973289
93	0xbe18b56a	-0.14912954
94	0x3d418fbb	0.047256213
95	0x3f6e4a26	0.9308189
96	0x3e398876	0.18118462
97	0x3e4104bf	0.18849467
98	0x3f7379e8	0.9510789
99	0x3de123fc	0.109931916
100	0x3fbccdf8	1.4750357
101	0x3f2ad92e	0.6673764
102	0xbcc848aa	-0.024448711
103	0x3e0d94b1	0.13826253
104	0x3ed3fd6a	0.41404277
105	0xbda3aa55	-0.07991473
106	0x3df53366	0.11972694
107	0x3dbe8509	0.09302718
108	0x3ebd5408	0.36978173
109	0x3fda13d4	1.7037301
110	0xbca5cdca	-0.02023973
111	0xbd2143e2	-0.03937138
112	0xbcac006e	-0.020996299
113	0xbe4b2071	-0.19836594
114	0x3f40215f	0.7505092
115	0x3f9607d3	1.1721138
116	0x3e971a96	0.2951247
117	0xbcb33200	-0.021874428
118	0x3f9cc62c	1.2247977
119	0x3f9620fe	1.1728818
120	0x3fd4e505	1.6632391
121	0x3c60961a	0.013707662
122	0xbd74fa88	-0.059809238
123	0x3db1e3ba	0.086860135
124	0xbc7514e5	-0.014958595
125	0x3ee34b04	0.4439317
126	0x3f8ac29d	1.0840641
127	0xbe411a1d	-0.18857618
128	0x3d9eef90	0.07760537
129	0xbc459bcb	-0.01206107
130	0x3e23fb72	0.16013888
131	0x3f841929	1.0320178
132	0x3d80794e	0.06273137
133	0xbf040158	-0.5156455
134	0xbc36db2e	-0.011160655
135	0x3e95d7e9	0.2926629
136	0x3cd42b26	0.025899481
137	0x4002e5ee	2.0452838
138	0x3f78f1eb	0.9724414
139	0xbeca7b69	-0.3954728
140	0x3d974c4c	0.07387599
141	0x3f8d229f	1.102619
142	0x3f596ffb	0.84936494
143	0xbc8319eb	-0.01600357
144	0x3df9c9ab	0.12196668
145	0x3f9533f6	1.1656482
146	0xbd4f7d5a	-0.050656654
147	0x3f7fd38a	0.9993216
148	0x3fafe4c7	1.3741692
149	0x3f2afab6	0.66788805
150	0x3d887fa3	0.0666497
151	0x3cf305ee	0.029665913
152	0x3ca4109f	0.020027457
153	0x3faebd0c	1.3651443
154	0x3f4b434a	0.7939955
155	0x3f9a52e9	1.2056552
156	0x3e1abc15	0.1511081
157	0x3c6279bf	0.013822972
158	0x3f3c6bd2	0.7360202
159	0x3fb2087b	1.3908838
160	0x3e2b9315	0.16755326
161	0x3f329d00	0.69770813
162	0xbd71a98e	-0.05899959
163	0x3cd33bfb	0.025785437
164	0x3d4864d9	0.0489243
165	0x3c36f284	0.011166219
166	0xbe44abb3	-0.19206123
167	0x3f547c70	0.83002377
168	0x3aa1ef05	0.0012354559
169	0x3dffa541	0.124826916
170	0xbd932f45	-0.0718675
171	0x3e930155	0.28711954
172	0x403f8a42	2.9928136
173	0xbe143a1a	-0.14475289
174	0xbd046dd1	-0.03233129
175	0x3f92f597	1.1481198
176	0x3fc08703	1.5041202
177	0x3f9327f9	1.1496574
178	0xbc972d28	-0.01845415
179	0x3d07d2dc	0.033160076
180	0xbe20c398	-0.15699613
181	0x3e0fced5	0.14043744
182	0x3fe88cc8	1.8167963
183	0xbeb592db	-0.35463604
184	0xbea1725b	-0.3153256
185	0x3f609f88	0.87743425
186	0xbfa559be	-1.2918012
187	0x3f009fa7	0.5024361
188	0xbbe9b38e	-0.0071320003
189	0x3f9423d8	1.1573439
190	0x3d98dfe0	0.07464576
191	0x3f28d500	0.6595001
192	0x3e0c6877	0.13711725
193	0x3f7667ae	0.9625195
194	0x3f33dcfc	0.7025907
195	0x3daa8739	0.08326573
196	0x3ebfee51	0.37486508
197	0x3dd9e178	0.10638708
198	0xbc2b2432	-0.010445641
199	0xbba68b9f	-0.005082562
200	0x3fc52466	1.5401733
201	0x3fe60f46	1.7973411
202	0xbef70b8a	-0.4825099
203	0x3fe6a5ba	1.8019326
204	0xbdd4060f	-0.10352718
205	0xbdb61554	-0.08890787
206	0x3efc9d36	0.49338692
207	0x3b7eae11	0.0038861076
208	0x3f507189	0.8142324
209	0x3e10c72a	0.14138475
210	0x3f9f6583	1.2452854
211	0xbe69cb36	-0.22831425
212	0x3db1bdd3	0.08678784
213	0x3fa6cc5b	1.3031114
214	0x3fb324d7	1.3995618
215	0xbd8c8acb	-0.0686241
216	0x3d46a398	0.04849586
217	0xbd0109e5	-0.031503577
218	0x3e19d094	0.15020972
219	0xbe1ed354	-0.15510303
220	0x3d6b61bf	0.057466265
221	0x3f81bce6	1.0135772
222	0xbf56122d	-0.83621484
223	0xbe6b2f12	-0.22967175
224	0x3d9ef64a	0.0776182
225	0x3f27b53e	0.6551093
226	0x3f5d3de4	0.8642256
227	0x3d987f43	0.07446148
228	0xc001c68d	-2.0277436
229	0x3cd04c3c	0.025426976
230	0x3f3ebfcd	0.74511415
231	0x3df5feab	0.12011465
232	0x3c297c53	0.010344583
233	0x3fa1b4ac	1.2633262
234	0x3da9c1bb	0.08288904
235	0xbe1531b9	-0.14569749
236	0xbb02d583	-0.0019963689
237	0xbac01faa	-0.0014657874
238	0xbd0d63f6	-0.03451916
239	0xbe716ba4	-0.23576218
240	0xbe3a8791	-0.18215777
241	0x3f827527	1.0192002
242	0x3fa2456c	1.2677436
243	0x3e1f18c7	0.15536796
244	0x3d68829f	0.056765195
245	0x3f5f4305	0.8721164
246	0x3c05aeb0	0.0081593245
247	0x3f13bcc2	0.57709897
248	0xbe7b9127	-0.2456709
249	0x3e8cca1f	0.27497956
250	0x3d9e02ca	0.07715376
251	0xbed03200	-0.40663147
252	0x3d22fac1	0.03978992
253	0x3d443dbe	0.047910444
254	0xbd31d9c4	-0.043420568
255	0x3f1ec775	0.620231

l1.bias f4 [8]
0	0x3eed594f	0.463572
1	0x3e89109b	0.2677048
2	0x3eb7ddfa	0.35911542
3	0x3e88da9d	0.2672929
4	0x3f53b67f	0.8270034
5	0x3e496a5d	0.1966948
6	0x3e7c079b	0.24612276
7	0x3ed10bb9	0.40829256

l2.weight f4 [8, 8]
0	0xbd1e3bc8	-0.03863123
1	0x3ee6536b	0.44985518
2	0xbfb6096e	-1.4221628
3	0xbfcc302b	-1.59522
4	0x4003c8a9	2.0591223
5	0x3e2fad15	0.1715587
6	0x3fdba952	1.7161047
7	0x3e4cf4ea	0.20015302
8	0x3f3d79f9	0.7401424
9	0xbfa3a6e0	-1.2785301
10	0xbf8141b5	-1.0098177
11	0x3f129c4e	0.5726975
12	0x3fc02072	1.5009902
13	0x3f9a0d8e	1.2035387
14	0xbf193703	-0.59849566
15	0x3f9f84ce	1.2462404
16	0xbe622782	-0.22085384
17	0x3f252844	0.64514565
18	0x3e42cfbe	0.1902456
19	0xbd8a1400	-0.06742096
20	0xbf012bd1	-0.50457484
21	0xbf7f8c11	-0.998231
22	0x3f876419	1.0577422
23	0x4058c992	3.3873029
24	0xbb9a0d1b	-0.0047012693
25	0x3ee4516a	0.44593364
26	0x3f9b9e46	1.2157676
27	0x3f2bad79	0.67061573
28	0x400774f9	2.1165144
29	0xbf8bd15f	-1.092327
30	0x3f93af24	1.1537824
31	0xc02ad2e5	-2.669122
32	0xbe31a354	-0.17347461
33	0xbfa24745	-1.2678
34	0xbe80e982	-0.25178152
35	0xbe9fe795	-0.3123137
36	0x4047c959	3.1216643
37	0x3fab53c9	1.3384944
38	0x3f2cb9b6	0.6747087
39	0x3e441440	0.1914835
40	0x3fb9d1cb	1.4517149
41	0x3fa85b85	1.315293
42	0x3faecca6	1.3656204
43	0xbfb5446e	-1.4161508
44	0xbd27f735	-0.04100724
45	0x3f825576	1.0182331
46	0xbed495c7	-0.4152052
47	0x3f59e011	0.85107523
48	0xbdf88a7c	-0.12135789
49	0xbd846afc	-0.06465718
50	0xbd3b25b8	-0.04569027
51	0xbe84789f	-0.25873277
52	0xbeb11df3	-0.34593162
53	0x3cb708f0	0.022343129
54	0x3cfa88d0	0.030582815
55	0x3d580588	0.05273965
56	0xbf277542	-0.65413296
57	0xbed7eb54	-0.4217173
58	0x3f16ce82	0.58908856
59	0x3fdfb4f7	1.7477101
60	0x3eefc495	0.46829668
61	0xbf27aaf2	-0.65495217
62	0x3f8bb1b4	1.0913606
63	0xbe6bc114	-0.23022872

l2.bias f4 [8]
0	0x3ea3ad2e	0.31968063
1	0x3ed754c9	0.42056873
2	0x3d1d82c4	0.038454786
3	0x3e9f988b	0.3117107
4	0xbea90b19	-0.3301628
5	0x3f0a4fdf	0.54028124
6	0xbe9f2471	-0.3108249
7	0x3ed22572	0.41044194

l3.weight f4 [8, 8]
0	0x3fb29ece	1.3954713
1	0xbfa9a21c	-1.3252597
2	0x3f389f81	0.72118384
3	0x3f872e81	1.0561067
4	0x3f3d040a	0.7383429
5	0x3f1496d9	0.58042675
6	0x3d53f8d8	0.051750988
7	0xbf277589	-0.6541372
8	0x3f94d53d	1.1627575
9	0xbe3ed708	-0.18636715
10	0x3f9ddba2	1.2332652
11	0xbe736efe	-0.23772809
12	0xbf1660b1	-0.5874129
13	0xbf0836a2	-0.53208363
14	0xbe17f80b	-0.14840715
15	0x3d8f6321	0.07001329
16	0xbf691864	-0.9105284
17	0xbe9fe544	-0.31229603
18	0x3fea32d5	1.8296763
19	0xbf064003	-0.52441424
20	0xc02ec4e9	-2.7307684
21	0x3f8e53b0	1.1119289
22	0xbe3bfbf7	-0.18357836
23	0xbe9b0f42	-0.30285078
24	0xbda4f756	-0.08054988
25	0xbf99d828	-1.2019091
26	0xbf170bac	-0.59002185
27	0x3f8ef340	1.1167984
28	0xc01996e9	-2.3998358
29	0xbf05860f	-0.5215768
30	0xbda368d4	-0.07978979
31	0x3f2c395c	0.67275023
32	0xbf18c240	-0.596714
33	0x3ec9a531	0.39383844
34	0xbefa1c77	-0.48849842
35	0xbf2e7856	-0.6815237
36	0xbf98d875	-1.1941057
37	0x3f8c63e4	1.0967984
38	0x3e0fca6c	0.14042062
39	0xbf5ad580	-0.85482025
40	0x3e52f649	0.20601763
41	0xbf4ec7fa	-0.8077389
42	0x3fc96b1f	1.5735816
43	0xbe6c56e1	-0.23080017
44	0xbf0a352d	-0.5398739
45	0x3f36b978	0.7137675
46	0x3ea90ec7	0.33019087
47	0xbe248257	-0.16065346
48	0x3fa733a1	1.3062631
49	0x3f552b79	0.8326946
50	0xbf4eab22	-0.8072988
51	0xbfaabb15	-1.3338343
52	0xbf6086be	-0.877056
53	0x3f7dedf8	0.99191236
54	0x3de26630	0.11054647
55	0xbfad71e8	-1.3550386
56	0xbf9ce6bb	-1.2257913
57	0xbfbe9140	-1.4888077
58	0xbf5e6554	-0.86873364
59	0x3f8d0a43	1.1018757
60	0xbc80c62b	-0.015719494
61	0x3fb396cb	1.4030393
62	0x3d1f3280	0.03886652
63	0xbe2f6f5b	-0.17132322

l3.bias f4 [8]
0	0xbead84f4	-0.33890498
1	0xbdc14adf	-0.09438109
2	0x3eee80bf	0.465826
3	0x3c98e483	0.01866365
4	0xbdddec7a	-0.1083612
5	0xbe00e116	-0.12585863
6	0xbd92db98	-0.071707904
7	0xbe29c581	-0.16579248

l4.weight f4 [26, 8]
0	0xbfd1a887	-1.6379555
1	0x401fba22	2.4957356
2	0xc024f31e	-2.5773387
3	0x400dabf1	2.2136195
4	0x3f3c0f24	0.734606
5	0xbecdab04	-0.40169537
6	0xbfb589ac	-1.4182639
7	0xc06cc4d4	-3.6995134
8	0xbf99460a	-1.1974499
9	0x40017f0b	2.023379
10	0xc049f420	-3.1555252
11	0x40154e43	2.3329017
12	0x3f4c7493	0.7986538
13	0xbf5254ed	-0.82160836
14	0xbf1837ee	-0.5946034
15	0xbfd9606f	-1.6982554
16	0x3de3e9b4	0.1112856
17	0xbf1c7f47	-0.6113171
18	0x3f1a6a65	0.60318595
19	0x3e06e5c2	0.13173583
20	0x3e2dd5a0	0.16976023
21	0x3f065f6c	0.5248935
22	0xbda7a552	-0.08185829
23	0x3f3308c2	0.6993524
24	0x3e052ffd	0.13006587
25	0xbf37df5a	-0.7182518
26	0x3ee190ea	0.44055873
27	0x3d2ec6dd	0.04267012
28	0x3e3700de	0.17871425
29	0x3efc4cec	0.49277437
30	0xbd0bb589	-0.034108672
31	0x3f4cda92	0.8002101
32	0xbeeadfd8	-0.45873904
33	0x401c6d61	2.444176
34	0xbf982140	-1.1885147
35	0x3d008ea9	0.03138605
36	0x40106b49	2.2565482
37	0x3e715460	0.23567343
38	0x3f258c2d	0.64667016
39	0xc02fe401	-2.7482913
40	0xc03e52ad	-2.9737961
41	0x4046f279	3.1085494
42	0xc0161545	-2.3450482
43	0x3d6d5f9d	0.057952512
44	0x3f8d0fda	1.1020463
45	0xbf110082	-0.566414
46	0x3e4d49df	0.20047711
47	0xc03fbc41	-2.995865
48	0xbdfd3ba0	-0.12364888
49	0x400edd77	2.2322671
50	0xbffd0795	-1.9767939
51	0x401311bd	2.2979577
52	0x3e6bed8b	0.23039834
53	0xbf6bf2f1	-0.92167574
54	0xbedbfbcf	-0.42965552
55	0xc013c3bc	-2.3088217
56	0xbfbbbf2c	-1.4667716
57	0x4084d9b1	4.1515737
58	0xbfe94d4d	-1.8226715
59	0xbd2314b3	-0.039814662
60	0x3fd48ce6	1.6605499
61	0xbf928857	-1.1447858
62	0x3fac6a53	1.3469948
63	0xc01a330b	-2.4093654
64	0xc05e86a5	-3.476968
65	0x40145172	2.317471
66	0xc0824e07	-4.072025
67	0x40156368	2.3341923
68	0x3f9fb55a	1.2477219
69	0xbfb1fbbb	-1.3904947
70	0xbf1b191b	-0.6058518
71	0xc034be43	-2.8241127
72	0xc0a5eac4	-5.184908
73	0x4052998f	3.2906225
74	0xc00b365f	-2.1751935
75	0x3e39565b	0.18099348
76	0x404a8614	3.1644335
77	0xbcdd45d5	-0.027010838
78	0x3eda3465	0.426181
79	0xc087f37e	-4.248473
80	0xbfb8dac5	-1.4441763
81	0x4064bae3	3.5739067
82	0xbfdde34c	-1.733499
83	0x3e48ee1f	0.19622086
84	0x3e725761	0.23666145
85	0xbf68cecc	-0.90940547
86	0x3ed2fa2d	0.41206494
87	0xc014df5b	-2.3261325
88	0xbf8deeec	-1.1088538
89	0x3fe3fbca	1.7811215
90	0xc02603b3	-2.5939758
91	0x3fe5512e	1.7915399
92	0x3e6f789e	0.23385856
93	0xbfc8dc98	-1.569232
94	0x3e18da74	0.14927083
95	0xc0209405	-2.5090344
96	0xbeceaf34	-0.40368044
97	0x4021d3c1	2.5285494
98	0xbfd751e7	-1.682187
99	0x3f4e5dc1	0.8061181
100	0x3d8e1077	0.06936734
101	0xbf6ce5a1	-0.92537886
102	0x3e23a31b	0.15980189
103	0xbff68e33	-1.9262146
104	0xbe971f8d	-0.2951626
105	0x405a26b1	3.4086115
106	0xc01304be	-2.2971644
107	0x4056458e	3.3479953
108	0x3f7f14bb	0.9964101
109	0x3ef18b55	0.47176614
110	0x3d0db417	0.034595575
111	0xc08fb9c8	-4.4914284
112	0xbfef63d9	-1.8702346
113	0x40550436	3.328382
114	0xc00a0d1b	-2.15705
115	0x3f9a2fba	1.2045815
116	0x3eca5213	0.39515743
117	0xbe2fb22e	-0.17157814
118	0xbf33d12a	-0.70241034
119	0xc0648557	-3.5706384
120	0x3ea22d16	0.31675023
121	0x40633bdc	3.5505285
122	0xc005fd37	-2.09358
123	0x3fb8539c	1.4400516
124	0x3f71ea64	0.94498277
125	0x3e373eea	0.17895094
126	0x3fcec890	1.6154957
127	0xbfc46b77	-1.5345296
128	0xbfe37491	-1.7769948
129	0x40208666	2.508203
130	0xbfe6725c	-1.800365
131	0x3df9a75c	0.121901244
132	0x3f9ca8df	1.2239035
133	0x3e8a0b0e	0.2696156
134	0xbf1a5ede	-0.60301006
135	0xc04ca302	-3.1974492
136	0xbf964aa6	-1.1741531
137	0x3fb49b66	1.4109924
138	0xc0088486	-2.1330886
139	0x3f16fd36	0.5898012
140	0x3f2c052b	0.67195386
141	0xbf423ead	-0.75876886
142	0x3e6b1a61	0.22959282
143	0xc024eaa5	-2.5768216
144	0xc02801cc	-2.6251097
145	0x40401d84	3.0018015
146	0xc00f14e3	-2.2356498
147	0xbe5419ad	-0.2071292
148	0x40805ed4	4.0115757
149	0x3fd4bf15	1.6620814
150	0x3f09a3fb	0.5376584
151	0xc01e4735	-2.4730961
152	0xc0412a8d	-3.018222
153	0x4046431b	3.0978458
154	0xc04485d5	-3.0706685
155	0x3f8865d7	1.0656079
156	0x3f3ba80d	0.733033
157	0xbf4bdb22	-0.79631245
158	0xbee30ea9	-0.44347122
159	0xc048d667	-3.138086
160	0xbf2cf8d0	-0.6756716
161	0x40304997	2.7544916
162	0xbfc25d1b	-1.5184664
163	0x3f2d5161	0.677023
164	0x3e98e326	0.298608
165	0x3ec58b66	0.38582915
166	0x3f494082	0.78614056
167	0xc0251784	-2.5795603
168	0xc0138e24	-2.3055506
169	0x3fe43db8	1.7831335
170	0xc01c7d9e	-2.445167
171	0x3de7340b	0.11289223
172	0x404e8969	3.2271369
173	0xbf2e69af	-0.6813001
174	0x3f1f0d69	0.6212984
175	0xc05395fd	-3.3060296
176	0xc02530c5	-2.5811017
177	0x3dcc4e24	0.09975842
178	0xc0144092	-2.316441
179	0x3f04dc29	0.5189844
180	0x3fadc4ec	1.3575721
181	0xbfe39fde	-1.7783163
182	0x3e9f63b5	0.31130758
183	0xbf884527	-1.0646104
184	0x3f1be8db	0.60902184
185	0x402a14d0	2.6575203
186	0xc0247dbc	-2.5701742
187	0x4011eb53	2.279988
188	0x3f9383ec	1.1524634
189	0x3dfcb9a2	0.12340094
190	0x3f2d3389	0.6765676
191	0xbf948625	-1.1603438
192	0xbcb7a117	-0.02241568
193	0x401e3787	2.4721391
194	0xbf853a9c	-1.0408511
195	0x3e9e7ce9	0.30954674
196	0x404e2bb6	3.221418
197	0x3f50ca8b	0.81559056
198	0x3f10d6a7	0.56577533
199	0xbfce1337	-1.6099614
200	0xbe1eb196	-0.15497431
201	0x3f82590c	1.0183425
202	0xc071073e	-3.766067
203	0x4087f089	4.248112
204	0x40212cae	2.518352
205	0xbf2ef509	-0.68342644
206	0xbf64fc53	-0.89447516
207	0xbf55074a	-0.8321425

l4.bias f4 [26]
0	0xc0971507	-4.721317
1	0xc0990466	-4.781787
2	0x3de043c8	0.10950428
3	0x3e1f6b46	0.15568265
4	0xc0dc574c	-6.8856564
5	0xc0836a21	-4.106705
6	0xc0b486a2	-5.6414347
7	0xc0caa45b	-6.332563
8	0xc08da936	-4.4269056
9	0xc08b5b4b	-4.354894
10	0xc094ff32	-4.656152
11	0xc08c58b6	-4.385829
12	0xc0821f26	-4.0663023
13	0xc0bece3d	-5.9626756
14	0xc0c14cf5	-6.040644
15	0xc0c35523	-6.1041427
16	0xc0b6b309	-5.709355
17	0xc085c2f4	-4.180048
18	0xc0e00768	-7.000904
19	0xc08f32a2	-4.474931
20	0xc0ce517d	-6.4474473
21	0xc0ba917c	-5.8302593
22	0xc087be71	-4.2419972
23	0xc0ed012a	-7.406392
24	0xc0d0b6cd	-6.5223145
25	0xc0e505b3	-7.1569457
