DL_Model/Pytorch_Model/data.pth (torch, 8988 bytes, 8 tensors)

l1.weight f4 [8, 119]
000000 9d 72 cc 3c 6e aa 8a 3e 77 c9 3e 3f 65 ee c0 bb
       0.024956996 0.27083153 0.7452616 -0.005887794
000010 7a bd 6c 3e 27 9c 97 3d c4 e2 b5 3d f0 d8 8c 3d
       0.23119155 0.074028306 0.08881143 0.06877315
000020 73 27 a8 3e 51 b3 fb 3e e0 6e 96 3d 0b 3a 23 3e
       0.32842597 0.49160245 0.073453665 0.1594011
000030 e6 34 53 3e 4c f6 c2 be 5c 17 2b be 6d 62 8f 3e
       0.20625648 -0.38078535 -0.1670813 0.2800478
000040 e8 97 00 3e 63 27 49 3e c2 4d 72 3e c2 06 00 3e
       0.12557948 0.19643931 0.23662475 0.12502578
000050 c3 9b b7 3d a6 8f 03 3c ec bd 6e 3c 2f 2c 02 3f
       0.08965256 0.008029854 0.014571648 0.5084867
000060 51 d4 80 3d 6b b2 5c bb 16 a3 c4 3d 70 c2 2a bd
       0.06290496 -0.0033675681 0.09601419 -0.041689336
000070 ca 55 19 3e 95 c2 15 3e 57 8b 8a 3d c1 ce 03 3e
       0.14974132 0.14625008 0.06764858 0.12871839
000080 50 5c 96 3d 78 5b 9b 3e 9a ed a9 3c bf 4c 0a 3e
       0.07341826 0.30343223 0.02074318 0.13505839
000090 36 54 af 3d 4a ac d5 3e ce 04 22 3e 20 51 ed 3e
       0.08560984 0.4173301 0.15822145 0.46350956
0000a0 7d 99 d8 be 59 05 d1 3d 0d dd 2f 3f 3f af e9 bc
       -0.42304602 0.10206098 0.6869667 -0.028525947
0000b0 af cd 2a 3f 53 02 09 3f 25 80 96 3d 85 87 b3 3b
       0.667201 0.5351917 0.073486604 0.0054788017
0000c0 9d db e5 3e 67 33 2c 3f 89 9b bf bc 22 cd 20 bb
       0.44894114 0.67265934 -0.023389595 -0.0024536331
0000d0 a3 0a 78 3e 87 be 80 be 57 3a 94 3d 53 9a 12 3e
       0.24222808 -0.2514536 0.0723769 0.14316683
0000e0 98 82 33 3e 50 77 0e 3f ca 20 0f 3e 5d df 51 3e
       0.17530286 0.55650806 0.13977352 0.20495363
0000f0 66 65 30 3c d7 46 ea be 3c a3 c0 3d 9e 84 7c be
       0.010766363 -0.45757172 0.094061345 -0.24659964
000100 bf 64 5e be d2 36 b6 3d eb 00 03 3e 26 e9 90 3e
       -0.21718119 0.08897175 0.12793319 0.28302878
000110 e7 00 86 3e 8d b5 08 3e 5d ed 04 3e b3 d8 4b 3e
       0.26172563 0.13350506 0.12981172 0.19906883
000120 95 96 4e be b9 34 92 3e bb 61 47 3d d3 07 04 3e
       -0.2017463 0.2855585 0.048677187 0.1289361
000130 65 a4 98 3e 55 bf 38 3e 41 1d 80 3e 08 7f 2e 3e
       0.29812923 0.18041737 0.2502232 0.17040646
000140 b4 8c 0c 3e f5 cc 09 3e 14 c1 98 3e de 3f 6f 3d
       0.13725549 0.13457091 0.29834807 0.058410518
000150 05 47 11 3e 9a 0d e4 3d db 21 9d 3d c1 b4 a1 3e
       0.14187248 0.11135407 0.07672473 0.31583217
000160 4b 30 08 3e 47 a9 0f 3e 8b 67 53 3d b3 74 4e 3e
       0.13299672 0.14029418 0.05161242 0.20161705
000170 61 f9 bf 3d 41 84 b7 3d 53 2c 25 3e e9 20 16 3e
       0.09373737 0.08960772 0.1613019 0.14660992
000180 37 a3 14 3e fe e0 f6 3d 10 73 a6 3e b0 a0 71 be
       0.14515387 0.120546326 0.3250966 -0.23596454
000190 0b 83 0f 3c a2 af 27 3e 28 a4 3b 3e 11 35 23 3e
       0.00875927 0.16375592 0.1832434 0.15938212
0001a0 f5 bb 08 3d ae 43 63 3e 55 59 8d bd a1 ba 40 3c
       0.033382375 0.22193787 -0.06901804 0.011763246
0001b0 0f ea 8a 3d 64 5a 9f 3e 15 d1 96 3d b2 52 8c 3e
       0.067829244 0.3112365 0.07364098 0.27406842
0001c0 02 df fe 3d 0e 04 10 3e 7d b8 45 3e 6b a0 2d 3e
       0.12444879 0.14064047 0.19308658 0.16955726
0001d0 91 78 40 3c 71 a1 e9 bd cc 23 45 3e 04 7c ae bd
       0.011747495 -0.11407746 0.19251937 -0.08519748
0001e0 fb 06 a1 bd 3a f0 cd 3e 3f 34 0d 3b b5 b3 92 3d
       -0.078626595 0.4022234 0.0021546034 0.07163183
0001f0 3b e0 26 3e a1 c4 0b 3e 49 bb b9 3d 92 5b 45 be
       0.16296475 0.13649227 0.09068925 -0.19273213
000200 19 ba 56 bd b4 d2 2d bc ab 5b a6 3d f5 b0 ff 3d
       -0.05242357 -0.010609318 0.08122953 0.12484924
000210 b2 85 8d be a2 74 e3 bd 40 4e 1a 3e 86 c3 2b 3e
       -0.27641064 -0.1110623 0.15068913 0.16773805
000220 78 31 48 3d 95 2c 5c 3e 8e 12 6f 3d c8 85 2c 3e
       0.048875302 0.21501382 0.058367305 0.16847908
000230 1f 57 17 3c a3 15 ab bc de 7d 05 be ff 05 19 3e
       0.00923708 -0.02088434 -0.13036296 0.14943694
000240 2c 5c 13 3e 44 f9 e7 3d a9 d1 9a ba ba a0 df 3d
       0.1439063 0.113268405 -0.0011811751 0.10919328
000250 a4 34 42 bc bd a4 da 3c d9 85 05 3e eb bd ef 3b
       -0.011853371 0.026689881 0.1303934 0.007316341
000260 b9 d5 7a 3e d2 f4 15 3e 8a c3 1e 3e df 99 b9 3d
       0.24495591 0.14644173 0.1550428 0.09062552
000270 1b 34 17 3e 17 02 1b 3d 57 a0 ab bc 30 fc 73 be
       0.1476597 0.03784379 -0.02095048 -0.2382667
000280 38 f3 2f 3e 44 54 60 be 27 34 b6 bd bf 32 41 be
       0.17182624 -0.21907145 -0.08896666 -0.18867014
000290 b9 ed 5f be 61 bb 13 3e c3 96 8e 3d c5 68 c7 3c
       -0.21868028 0.14426948 0.06962349 0.02434195
0002a0 2c 41 42 be 1b 98 00 3e b0 c9 20 3d 84 7a 2d 3e
       -0.18970174 0.12558024 0.039254844 0.16941267
0002b0 52 19 81 3e 68 3d 14 3d 98 1f 57 3d bf e7 bb 3d
       0.2521463 0.036191374 0.052520365 0.091750614
0002c0 ea cc 72 3e 71 d6 56 bc 5b 23 22 3e cc a3 f4 bb
       0.23710981 -0.01311265 0.158338 -0.007465815
0002d0 14 44 85 3e 4a 81 ff 3d f3 d1 fa bd 9f be b2 3e
       0.26028502 0.12475832 -0.12247076 0.34911057
0002e0 d8 a1 f9 3a d1 fa 09 3e c9 83 cf 3d 18 a6 b5 3d
       0.0019045426 0.13474585 0.10132558 0.088695705
0002f0 bc e8 df bc f7 fb 56 3d 42 2f ac 3d 22 23 72 bd
       -0.027332656 0.052486386 0.08407451 -0.059115537
000300 78 79 8e 3e 6c 18 00 3b 2e 36 83 3d b7 d2 81 3e
       0.27827048 0.0019545807 0.06406818 0.25356075
000310 2c 2a 18 3e 4a f4 80 3e 48 32 fb 3d 55 8a e5 3d
       0.14859837 0.25186378 0.1226545 0.11208025
000320 ac f9 07 3e f1 ce 64 3e a9 02 c0 3c ef 04 2a 3e
       0.13278836 0.22344567 0.023438768 0.16603445
000330 cc bd 21 3e 28 d9 72 3d a3 60 5b 3e 95 4e 2a 3e
       0.15795058 0.059289128 0.21423583 0.16631539
000340 98 1e c6 3d 3f 4f 1b 3b 36 4b 67 3d 59 dd 53 3d
       0.09673804 0.0023698357 0.05646821 0.051724765
000350 53 e8 f2 3d dc 55 72 3d 1d fe e8 3d d9 ea 15 3d
       0.118607186 0.059163913 0.11376593 0.03660092
000360 e0 ee c1 3d 82 d2 5c 3e b9 94 c9 bd b7 ac 03 3e
       0.0946939 0.21564677 -0.0984282 0.12858854
000370 71 c2 b2 bc da 9b a0 3d c1 60 fd 3d 22 ab ba 3d
       -0.021821233 0.07842226 0.1237197 0.09114672
000380 47 32 a3 3d 87 dd a5 be eb 44 19 be c8 4f f0 3d
       0.07968574 -0.32395574 -0.14967696 0.11733967
000390 a0 8b 68 be ac 48 83 3d 4e b4 0a 3e e0 39 48 3e
       -0.22709513 0.064103454 0.13545343 0.19553328
0003a0 7c 16 e7 3d 80 93 5b 3e db 95 73 3d de c0 12 3e
       0.112835854 0.21442986 0.059469085 0.14331385
0003b0 8c 0d 90 bd 07 a9 a4 bc f2 2c 33 be c7 06 93 bd
       -0.07033834 -0.02010013 -0.17497614 -0.07179027
0003c0 5b 25 12 3f 86 13 2e 3e 82 3c 3d 3e ee 2d 37 3e
       0.5708825 0.16999635 0.18480113 0.17888615
0003d0 56 68 64 3e 50 02 ca 3c 82 da 92 bd bc 0d 1c 3e
       0.22305426 0.024659306 -0.07170583 0.15239614
0003e0 5e ff 31 3e 23 ce 1e 3e 24 23 6c 3e dc 5a af be
       0.17382571 0.15508322 0.2306028 -0.34249008
0003f0 c9 5d 1a bb 4e 67 89 3e a9 b5 90 3d 3c de f8 3d
       -0.0023554435 0.26836628 0.07065899 0.12151763

l1.bias f4 [8]
000000 47 ac 3e 3f ac cd a5 3e 93 21 f6 3e ae 31 a0 3e
       0.74481624 0.32383478 0.4807249 0.31287903
000010 f0 49 8a 3e dc 89 0a 3f 42 d6 80 3f 51 46 8a 3e
       0.27009535 0.54116607 1.0065386 0.27006772

l2.weight f4 [8, 8]
000000 ca c9 84 3e e2 da 18 3f bf e0 09 3f 9c 8d da 3e
       0.25935203 0.5970899 0.5385856 0.42686164
000010 01 5b 06 3f 16 67 76 3f 48 bf 14 be b0 56 00 3f
       0.5248261 0.96251047 -0.14526093 0.50132275
000020 72 39 4f 3f 91 f4 43 3e f3 df f6 3e d7 8a 6d 3f
       0.8094703 0.19136263 0.48217735 0.9278998
000030 08 4a 4c 3f b4 f9 a9 3e 52 35 c6 bf d6 06 05 3f
       0.7980046 0.3319832 -1.5485022 0.51963556
000040 2e 87 11 bf 7b 2b 3f 3f 23 65 1c 3f d3 dc 1a 3e
       -0.5684689 0.7467572 0.6109182 0.151233
000050 4e 34 bd bc 69 8a f3 3f 91 f7 32 bc f1 ea 13 3f
       -0.02309623 1.9026614 -0.010923282 0.5778037
000060 48 04 0f 3d b5 f4 8f be e9 c6 e3 3d c4 58 8d bd
       0.034916192 -0.28116384 0.111219235 -0.06901696
000070 8e fb 92 3e 6d 72 ac be 0a c6 be 3c 83 74 89 bd
       0.28707546 -0.3368105 0.023287792 -0.06711676
000080 f9 6f b6 3f 44 c3 44 bf 2b 25 dc be 6a 07 06 bf
       1.4252921 -0.7686045 -0.42997107 -0.5235506
000090 e8 2f 95 be 07 f6 1a be 50 2b f0 3f 84 1d 8e bf
       -0.29138112 -0.15132914 1.8763218 -1.1102757
0000a0 ef 5b 7e 3e a4 4b 3c 3e 46 31 84 3d 8a ae 94 be
       0.24839757 0.1838823 0.06454711 -0.29039413
0000b0 fd e4 04 be f4 20 70 be 6d 9d 4f 3d 01 67 93 be
       -0.12977977 -0.2345007 0.050687242 -0.28789523
0000c0 1a bd 28 3f d1 56 0a 3f 5f 91 13 3f 3e ac 1c 3f
       0.65913546 0.5403872 0.57643694 0.6120032
0000d0 8e 91 23 3f 03 3e 06 3e 91 3e 07 bf 08 5c fa 3e
       0.63893974 0.13109593 -0.52829844 0.4889834
0000e0 e8 73 b2 3f 05 26 f0 3e a7 f7 96 3f 13 3d 23 3f
       1.3941622 0.46904007 1.1794327 0.63765067
0000f0 ec db 78 3f b9 97 21 be 10 f9 e3 be b3 70 cb 3e
       0.97210574 -0.15780534 -0.44525957 0.3973442

l2.bias f4 [8]
000000 a9 e0 f8 3d 5d 7c 4e be ab 08 d0 3e 1d 8e 81 be
       0.121522255 -0.20164628 0.40631613 -0.25303736
000010 9b 8c 9d 3f 7b d5 b6 be dd bf c3 3e 32 d5 a6 3e
       1.2308534 -0.35709748 0.38232318 0.3258453

l3.weight f4 [8, 8]
000000 f5 32 71 bf cf b0 33 be 47 2e 87 bf eb ac f8 3d
       -0.9421838 -0.17547916 -1.0560998 0.121423565
000010 d6 f7 0b 3f 90 ea be 3e c4 aa c8 be 56 0d c7 3e
       0.5467504 0.37288332 -0.39192784 0.38877362
000020 28 c5 8c bf c5 08 8b 3f 34 0e 86 bf 48 6f 0f 3b
       -1.0997667 1.0862051 -1.0473084 0.0021886397
000030 0c e4 09 3e 24 a8 71 3e 99 06 2a bf c2 26 95 bf
       0.13465899 0.23599297 -0.6641632 -1.1652453
000040 0e bc f7 bc f4 5c 87 3f 4b 2a 35 bf 27 17 1a 3d
       -0.030241039 1.0575242 -0.7076766 0.037619736
000050 02 03 0b bf d0 4d 85 be 32 76 1a 3f 1e d2 31 3f
       -0.54301465 -0.2603593 0.603366 0.6946124
000060 86 4d ce 3e b2 a5 13 3f 42 78 25 bf 6c 21 59 be
       0.4029352 0.57674706 -0.64636624 -0.21204156
000070 88 f1 3b be 8d 49 7e be b3 1b 23 3e c9 8e 84 3f
       -0.18353856 -0.24832745 0.15928535 1.0356075
000080 86 e0 fa 3e 94 5a 99 3f 2c 8b 01 3e 8e cd 2f be
       0.48999423 1.1980767 0.12650746 -0.17168257
000090 6e d5 ae bf 37 03 b5 bd c3 13 3a 3e 24 25 9a 3d
       -1.3658884 -0.08838504 0.18171601 0.07526615
0000a0 db 5d c2 be 09 8c 2f bf 30 98 05 3e 18 1b 3a be
       -0.3796223 -0.6857305 0.13046336 -0.18174398
0000b0 66 99 79 3f 40 19 0f be 04 43 10 bf 6e 6d 10 bf
       0.9749969 -0.13974476 -0.5635226 -0.56416976
0000c0 10 b8 a1 bd 3f 56 a6 be d4 2d 94 be 06 64 ed bc
       -0.07896435 -0.32487676 -0.28941214 -0.028978359
0000d0 d6 0a 5a 3f 23 a6 3f 3e c3 43 a4 be c3 cf 38 bf
       0.85172784 0.1871572 -0.32082948 -0.7219202
0000e0 fc 33 94 3f 02 43 25 3e f6 34 b0 3f d5 a3 ed 3d
       1.1578364 0.16138843 1.3766162 0.11603514
0000f0 8b 76 8d bf 2e 16 67 be 75 61 c2 3d bc f8 12 bd
       -1.1051801 -0.22567055 0.09491245 -0.035881743

l3.bias f4 [8]
000000 16 5d 1c 3e d1 51 81 be 7e ba 02 be f3 d7 a6 be
       0.15269884 -0.25257733 -0.12766454 -0.3258663
000010 6e 4c cb be da c5 14 3e 61 6f 6e bd b6 ca 81 bd
       -0.3970675 0.145286 -0.058211688 -0.06337492

l4.weight f4 [5, 8]
000000 65 15 f1 be 14 5f 01 bf 07 cc f6 be 21 74 ed bd
       -0.47086635 -0.505357 -0.48202536 -0.115944155
000010 45 1c 94 3d 89 a1 c2 bd 7e 8f 03 bf d8 2d 4f 3f
       0.072319545 -0.09503467 -0.51390827 0.80929327
000020 ed 67 f6 be bd 90 a4 3c 69 e9 2e bf 90 21 bb bf
       -0.48126164 0.020088548 -0.68324906 -1.4619617
000030 19 91 af be 90 37 21 3f cd 80 03 3f 07 58 40 3e
       -0.34290388 0.62975407 0.5136841 0.1878358
000040 d5 a1 28 3f 2f 01 f7 be 42 1b d6 3e c8 42 36 3f
       0.65871936 -0.4824309 0.4181767 0.7119565
000050 f3 5d d5 be 87 5b 40 3e ba c5 46 be 55 d6 2d bf
       -0.4167324 0.18784915 -0.19411364 -0.6790517
000060 e6 51 f8 be 5a 53 81 3e e1 4b 34 3f 19 b0 27 3f
       -0.48499984 0.25258905 0.7042828 0.6550308
000070 99 01 56 3f 9b c5 1a bf 39 b8 11 bf 04 06 1c 3f
       0.8359619 -0.6045777 -0.56921726 0.6094668
000080 75 c1 7b 3f ec fd 90 3f 3e 62 28 bf 44 d0 39 bf
       0.98342067 1.1327491 -0.65774906 -0.72583413
000090 e4 62 02 bf 0b dd 76 3e d5 04 0b 3f 86 ef 40 bf
       -0.50932145 0.24107759 0.5430425 -0.75365484

l4.bias f4 [5]
000000 54 82 d5 3e 80 41 ae 3d 71 2e 3d be 91 77 bc be
       0.41700995 0.08508587 -0.18474747 -0.36809972
000010 e4 b9 08 be
       -0.13352162
